cifar_net.pth (torch, 250887 bytes, 10 tensors)

conv1.weight f4 [6, 3, 5, 5]
00000000: 8237 4cbb ab11 2b3d 6332 b43c c1d8 21be
00000010: 6e94 debc 05ae d53d 6b89 0f3e c6a9 7dbc
00000020: 5de0 dcbc 43bd d3bd 15f7 f33d e001 943d
00000030: 19e2 d43d 793b aebc 2ac3 1dbd 964e 8b3d
00000040: c2c2 ea3d 071d 893d 54e0 bf3d 23ef 983d
00000050: 61fd f7bb daa8 193e 6567 2d3e 91d7 273e
00000060: 0001 d93d 29f7 963d 66bf 0bbe e4d7 33be
00000070: 132c 90bd 0a30 dfbd b717 9fbd fded 723c
00000080: 59d8 0abe d90b b1bd 8afa edbd 327c 843b
00000090: 4f44 75bb 62f9 12bd 3b12 7ebd 5753 e9bd
000000a0: 28c4 adbc 3255 b9bd bec6 49bd add3 34be
000000b0: 2049 efbd 07de 5ebe 3466 35bd a68d 0fbd
000000c0: 2a0d b4bd 3736 c4bd a37e ed3d f88c a53e
000000d0: 1b6b 453d abd3 fcbb bdf8 7ebd 159f 843e
000000e0: 7879 893e 55aa 853e 3cbe 4c3d 6a17 26be
000000f0: cd43 973d c726 af3e 0c24 593e 5d3f 623c
00000100: 2cd3 1abd afcf d33b e917 2a3e 21ff 5c3e
00000110: c690 fe3d c1d9 2ebd 79f2 983d 1753 86bc
00000120: ca35 903d bf52 223d cecd 5f3d 0190 38be
00000130: 5a2a f2be 9193 dfbe de4d 8fbe b620 d7bd
00000140: ccaa 00be 8956 80be 294a 9dbe 2264 cfbe
00000150: facd 08be edba 853e 9af4 ef3e 0fd3 ca3e
00000160: 5609 423e 4472 0f3e 7fc3 293e 6ee6 8e3e
00000170: 5439 af3e c48c 9f3e f5b6 de3d 58df e03c
00000180: c488 cebd 4471 0cbe 7458 2f3d 015c 8e3d
00000190: 07f0 febd 000a 4ebe 61f9 4abe 627a 01be
000001a0: 8156 8cbd fe8d c33d aecd 053e dc1f 853c
000001b0: f1f2 203d 32d6 dabd 0e56 bd3e 0f2e e83e
000001c0: 4f02 2c3f af84 c73e 58b7 ed3d ccd5 56be
000001d0: 6f1a 96bb 286f 92bb 1f17 183e d493 623d
000001e0: f090 83be 847a aebe c50e a9be da6d 95be
000001f0: f42c 63bd 0d91 2e3d a6ff acbc 8fc5 96bc
00000200: 87b9 093e 79af 633e ab6b 083e bba5 82bd
00000210: 8628 813d ca50 b8bd 4c91 97bd 7042 863e
00000220: 32e7 c53e 5512 063f a66a 343e 89a8 7d3d
00000230: 2f96 9bbe 8f76 13be 2ea2 0ebd 9c9d 8a3d
00000240: 608b 57bc 0613 bbbd 49d6 9dbe c22c d4be
00000250: e6e3 aabe 68ea dbbd 1083 3a3d 6a03 6b3e
00000260: b84f e83e fa5a ce3e e3da 853e 3313 bbbc
00000270: e67f 993e 6409 b63e 9b82 923e 3186 ea3d
00000280: 6780 01bd 1262 b63e defe ab3e 9658 983d
00000290: 99cb 0a3e 955f 3f3d 9f87 2b3e 3c24 023a
000002a0: d975 92be aa90 39be f959 8cbe 649e 96be
000002b0: 892a a3be b284 e0be b3ea c03d 24f4 29be
000002c0: bfe0 8fbd 067b e9bd 4003 71be 1e01 74be
000002d0: d45a 1fbe de18 8abd 8418 babd e638 77be
000002e0: 2aac ccbe 98ff 69bd 5642 2f3e 9dcd 793c
000002f0: 21c8 0cbe c77e 54be acd1 253e 3ba1 fd3d
00000300: 9c57 cabd aec6 05bf 8a24 82be 8c34 bfbd
00000310: f2ad 02be 5f65 c5be c68f dabe c08b 18bc
00000320: f85d fdbd be6a 57bc eb01 aa3d 93ef d4bc
00000330: 9cfb 7dbd 1ec0 cbbd 825c 8bbb 3181 c63d
00000340: 5faa 25be 43f6 71bd feb0 203e ea9a ad3e
00000350: fd35 903e 5bbb 64bd 6dd1 a4bd 2da0 883e
00000360: 8115 ac3e a5d1 143e 4c08 1abe 34fb 2fbd
00000370: bc78 f93d 4e55 2b3e fa0a 4bbd c892 32be
00000380: d658 623e a15c b5bc 3f4e 5e3d d0d1 a1be
00000390: 865f acbd 2472 b63e f2f2 423e efdc 3d3e
000003a0: 6e8c 9fbe 3a70 d7be 57bf 433e ebc9 053e
000003b0: e5ac 493e d67d 4fbe dca9 c5be e46a 653d
000003c0: a48c 10be 7c4b 8a3e 4155 883d fa97 82be
000003d0: bd64 573b c722 2bbe 2059 8cbd d26a 96bd
000003e0: 6a87 02be 8fa4 213e f0e6 103e 024b a83d
000003f0: b1cf acbe 412b 93be cf6e 643e 8ef6 c13e
-0.0031161015 0.041764896 0.021996683 -0.15805341 -0.027170386 0.10433582 0.14017265 -0.015482372
-0.026962453 -0.10338833 0.119123615 0.0722692 0.10394687 -0.021268593 -0.0385162 0.068020985
0.11462928 0.0669499 0.09368959 0.07467487 -0.007568047 0.15005818 0.16933973 0.16390826
0.10595894 0.07371361 -0.13647231 -0.17562824 -0.070396565 -0.108978346 -0.07768195 0.014827249
-0.13559093 -0.08644838 -0.11620052 0.0040431255 -0.0037424748 -0.03588236 -0.062029105 -0.11392849
-0.021211699 -0.09049453 -0.0492618 -0.17658873 -0.11683869 -0.21764384 -0.04428692 -0.035047196
-0.08791573 -0.09580653 0.1159642 0.32334113 0.048197847 -0.0077156625 -0.062248934 0.2590262
0.26850486 0.26106516 0.04998611 -0.1621987 0.07385979 0.34209272 0.21205157 0.013809052
-0.037799045 0.006463967 0.16610684 0.21581699 0.12429957 -0.042688135 0.07468123 -0.016397042
0.070415094 0.039629694 0.05463963 -0.18023683 -0.47297937 -0.43667272 -0.27989095 -0.10504286
-0.12565154 -0.2506602 -0.30720642 -0.40506083 -0.13359824 0.26119176 0.46866304 0.3961415
0.18948874 0.14008433 0.16578482 0.2791018 0.34223425 0.31162083 0.1087474 0.027450249
-0.1008468 -0.13715082 0.042808965 0.06951142 -0.12448125 -0.20121002 -0.19821693 -0.12644342
-0.06852437 0.09548567 0.13066742 0.016250543 0.039294187 -0.10685386 0.36979717 0.4534764
0.6719102 0.38968417 0.11607236 -0.20979995 -0.004580788 -0.0044688173 0.1485257 0.05531676
-0.25696516 -0.34077847 -0.3301908 -0.29185373 -0.055462793 0.0426188 -0.021117996 -0.01840475
0.1344968 0.22234906 0.13322322 -0.06379267 0.06306557 -0.08999784 -0.0740076 0.26222563
0.3865295 0.5237172 0.17618808 0.061928306 -0.30388018 -0.14400695 -0.034822635 0.06768343
-0.013155788 -0.09134488 -0.3082755 -0.41440398 -0.33376998 -0.10738069 0.045535147 0.22950521
0.4537332 0.40303785 0.2614356 -0.022836303 0.2998039 0.3555404 0.2861527 0.11451376
-0.031616595 0.35621697 0.33592886 0.074387714 0.13554229 0.046722014 0.16750954 0.0004964506
-0.28605536 -0.18121591 -0.27412394 -0.29417717 -0.3186839 -0.43851238 0.09419765 -0.16597039
-0.07025289 -0.11400418 -0.23536396 -0.23828551 -0.15561992 -0.06743024 -0.09086707 -0.24142799
-0.399751 -0.05712852 0.17115149 0.015246776 -0.13748218 -0.20751487 0.16193265 0.12384268
-0.098799914 -0.52256286 -0.25418502 -0.093361944 -0.12761667 -0.38553903 -0.42687815 -0.009310663
-0.12371439 -0.013148008 0.08301147 -0.025993144 -0.06200753 -0.09948753 -0.004252971 0.0969261
-0.16178273 -0.059072744 0.15692517 0.33907253 0.2816619 -0.05584274 -0.08047757 0.26684704
0.33610156 0.14533098 -0.15042228 -0.042964175 0.121812314 0.1673176 -0.049571015 -0.17438805
0.221042 -0.022138895 0.05427384 -0.31605387 -0.08416657 0.35633957 0.19037989 0.1854131
-0.31161827 -0.4207781 0.19115959 0.13065307 0.1969486 -0.20262846 -0.38606155 0.056010142
-0.1411615 0.27010715 0.06656886 -0.25506574 0.0032866441 -0.16712485 -0.06852937 -0.07344593
-0.12746969 0.1578543 0.14150596 0.082174316 -0.33752206 -0.28743938 0.22307895 0.3788342

conv1.bias f4 [6]
00000000: 91a1 003e 2583 a1be a999 adbe 0c16 61bd
00000010: 05fa 983e 8fe6 bebe
0.12561633 -0.31545368 -0.33906296 -0.054952666 0.2987825 -0.37285277

conv2.weight f4 [16, 6, 5, 5]
00000000: 40bd debc 72d7 32ba ece4 193d 3d64 173e
00000010: b00f 803e 3352 e0bd 2a0a 4fbc 1d6b a53d
00000020: 0e1b 123d 5093 093e 257a 03be 73d8 21bd
00000030: de46 45bc bfee 9d3d 51a7 333e 46e1 91bd
00000040: f1b2 2ebe 1916 10be 70f6 bd3c 74fd 813d
00000050: 6c02 28bd fb99 18be 3e35 60be b9e8 8bbe
00000060: d162 31be 16ed e23d df45 c33d f036 073d
00000070: cf50 9d3c 3ae0 57bc 6a48 093c 6777 0f3e
00000080: f98b 3e3e dc8e 403d 6ca1 c83d 7293 10be
00000090: f503 e53b 41cf 093e 22f8 ff3d c382 8e3d
000000a0: 1cd5 ffbc 086b 393d cead 75bd d99d 0f3d
000000b0: a19d 523e 766b 623b 637b 953d 447c 753d
000000c0: 6287 ddbc 5078 3abe 8d7c 053e 7769 10bc
000000d0: ce43 6d3d de8f eebc a6df 1cbd 46c2 b53d
000000e0: 50cc c33d 0aa9 39bd 72a9 46bd 82f7 e83c
000000f0: a6c7 77bd 77a9 9e3d a713 5f3d 72ad 14bb
00000100: aa34 07bd 3f4f 30be dac7 2d3c 153b 563d
00000110: 2378 d93d 5e10 bc3d 42f4 73be 556d 83bd
00000120: 4cc8 803d 26a9 433d 9b61 163e 6abd f6bd
00000130: 1340 65bd 17e9 413d 1969 b7bd 354a 05be
00000140: cc2f 88be 3145 db3c 3c81 57bd 86f3 503d
00000150: 86a4 7ebd e2d1 3ebd f264 1bbe 2974 dbbd
00000160: 674b 9f3d 25ad 133e 89a9 a53e cab0 b83d
00000170: 76dd 94bd 0d54 b4bd 6f39 0d3d c88e 803e
00000180: 9002 893e 24b0 123e e5ff 11bd 8c90 70be
00000190: 60ff 2c3d b13c 2dbd 662f 61ba ec95 593c
000001a0: 652e f9bd 9a13 643d 4b68 f5bc b3bb b0bd
000001b0: 5547 d1bd 7487 98bd 57ec 913c 950b ce3d
000001c0: 021f cc3d 6ebd 263d 02c9 18bd 33cf 113d
000001d0: 3347 b03c ccff ed3d 0d53 fb3c ba9a d6bd
000001e0: 19fd d83c 71f1 4bbd 730a 8dbd 82de 9f3d
000001f0: 0bf5 1bbc b5a4 b0bd 7d5f 03bd 398c 97bd
00000200: cc12 f9bd 7089 25be 4fa5 57be adba 46be
00000210: 3208 12be 36a8 37bd e2e2 06be be36 823d
00000220: 70a0 fdbd dcaa 21be b5a9 cebd b216 d8bd
00000230: a74f d13d 663f 2a3d 6a54 33bb f89f f9bd
00000240: 7d0d f6bd 65d7 fd3d 3a82 4d3e 8a7a 2e3e
00000250: b667 9b3d 3f9a 3ebe b4a4 6d3e 51a1 d33d
00000260: 7f35 fd3b bab5 be3d 1307 833d d815 963e
00000270: 01fd 203e 8b67 b03d 8571 f5bd f3c1 01be
00000280: a773 ae3b 6e3c 4f3e 9b86 083e bb11 a9bc
00000290: f404 d3bd 4d9b 1c3e 7e12 583c a1b4 fb3d
000002a0: 6534 01bd a99a b93c fc3c 4f3e 6290 943d
000002b0: cccd 72bd 8ffa bc3d c0ad 593d b5d4 1fbc
000002c0: 0803 b9bd b080 163c 5d4c 4b3c bc74 313c
000002d0: 7786 bebd 2dd9 443e c16f e63d 996a 3cbd
000002e0: 11d9 19be 47aa a1be 15e4 1bbd b083 653e
000002f0: 58ee 9c3d 24f9 b4bd 11e7 1bbe b51c 08be
00000300: 7780 cabd f7f1 b23d 5a32 0abd e04f adbd
00000310: 10f6 88bd 1a3b 303b 9352 d6bb 38cb d5bd
00000320: b93a ddbd 8527 d3bd 647d 40bd c9ba 29bd
00000330: 998b 733d cc3d 34be 5943 cdbd c3b5 b8bd
00000340: 5832 5bbc 2bbf f73b bae8 9ebd 180b fbbd
00000350: f452 39bd b9b4 f5bc 9737 77bd 9fef 333d
00000360: 4d28 aabd 6272 72bd 197d 6bbc a288 47bd
00000370: 74f5 c93d 92ec e3bc c864 b6bd 5a3d 4d3d
00000380: 9895 73bc 68a0 913e cc14 f63d f870 1cbe
00000390: 227a 363d 45a0 2c3e d8f2 39be c885 753e
000003a0: 3ea0 e43d f20d 6abd a91b aebd 0962 50be
000003b0: 3bf1 3cbe c8aa 4f3e 6976 e13d 0ef6 09bd
000003c0: 41e3 e03d 2d27 e8bd a496 34be 6677 d83d
000003d0: 9972 a53d 55ad 263e fc86 a93d 3a3f 72be
000003e0: cc62 32be 2341 cbbc b79c 85bd c444 08bc
000003f0: 81c5 29bd ba2b 6cbd a074 a2bd cda1 e4bd
-0.02718985 -0.0006822265 0.037571833 0.14784332 0.2501197 -0.10953178 -0.012636701 0.08077071
0.035670333 0.13435102 -0.12839563 -0.039513063 -0.012040822 0.07711553 0.17544295 -0.071230456
-0.17060448 -0.1407093 0.0231888 0.063471705 -0.041017935 -0.14902489 -0.2189531 -0.2732599
-0.17322852 0.11080377 0.09534811 0.033011377 0.019203572 -0.013176018 0.008379081 0.14010392
0.18608083 0.04701124 0.09796414 -0.14118746 0.006988997 0.13457967 0.124984995 0.069585346
-0.031229548 0.04526809 -0.059980206 0.035062645 0.20567943 0.0034548915 0.07298925 0.059932962
-0.027042095 -0.18209958 0.13035794 -0.008814207 0.05792599 -0.029121336 -0.038299225 0.08874945
0.09560454 -0.045327224 -0.04850144 0.028438333 -0.060493134 0.077471666 0.0544621 -0.002268639
-0.03300921 -0.1721773 0.01060673 0.05230244 0.106186174 0.09182809 -0.23823646 -0.06417338
0.062882036 0.047768734 0.14685671 -0.120478466 -0.05596931 0.047341432 -0.08955593 -0.13016589
-0.26598966 0.026766391 -0.052613482 0.051013492 -0.06216862 -0.04658688 -0.15175226 -0.10715515
0.07778054 0.14421518 0.32355908 0.09018095 -0.07268803 -0.08805094 0.0344786 0.25108933
0.26759768 0.14325005 -0.03564443 -0.2349264 0.042235732 -0.042294208 -0.0008590132 0.013280373
-0.12167052 0.055682756 -0.029956957 -0.08629551 -0.10218684 -0.07447711 0.017812891 0.10060803
0.09966852 0.040707998 -0.03730107 0.03559799 0.021518325 0.11621055 0.03067925 -0.104787305
0.026487874 -0.049790803 -0.06886759 0.07806112 -0.009518872 -0.086251654 -0.032073487 -0.07399792
-0.12161788 -0.1616571 -0.21059154 -0.19407149 -0.14260939 -0.044838153 -0.13172486 0.063580975
-0.12384117 -0.15787834 -0.10090963 -0.10551204 0.102202706 0.041564368 -0.0027363547 -0.12188715
-0.120142914 0.12394599 0.20069209 0.17038932 0.07588141 -0.18613528 0.2320736 0.10333503
0.0077273245 0.09312005 0.06397834 0.2931354 0.15721513 0.08613499 -0.11984543 -0.12671642
0.0053238454 0.20237896 0.13332598 -0.020638337 -0.10303679 0.15293618 0.013188003 0.122903116
-0.031544108 0.022656756 0.20238107 0.07254101 -0.059278294 0.09227478 0.053144217 -0.009755303
-0.09033781 0.009185955 0.012408343 0.010831054 -0.09302991 0.19223471 0.11251784 -0.046000097
-0.1502421 -0.31575224 -0.038059313 0.22413516 0.07662648 -0.08836582 -0.15224864 -0.13292201
-0.09887784 0.087375574 -0.033739425 -0.084625006 -0.06687558 0.0026890696 -0.0065406053 -0.104391515
-0.10802216 -0.10310272 -0.04699458 -0.041437898 0.059459303 -0.17601699 -0.10022611 -0.09019043
-0.013378702 0.007560631 -0.07759233 -0.12257975 -0.045245126 -0.029993402 -0.06035575 0.043929692
-0.08308468 -0.059191115 -0.014373087 -0.048714288 0.098612696 -0.027822766 -0.08905941 0.050107338
-0.014867209 0.28442693 0.120156854 -0.15277469 0.04455007 0.16858013 -0.18159044 0.23976815
0.11163376 -0.057142206 -0.085013695 -0.20349897 -0.18451397 0.20279992 0.11008913 -0.03368192
0.10980845 -0.11335597 -0.1763559 0.105696484 0.080784984 0.16277058 0.08277699 -0.23656932
-0.174205 -0.024811333 -0.065240316 -0.008317176 -0.04144812 -0.05765889 -0.07932401 -0.111636735

conv2.bias f4 [16]
00000000: 93ea fbbe 0fe1 c3bd 1308 ee3c 3616 d3be
00000010: e663 63bc 5806 3dbe d421 9c3f 0c81 063e
00000020: 4a65 46bf ff8a 6abd 0c5c f53e ed10 15be
00000030: 1546 9bbe 570b b03e bf28 42bd 5be8 af3d
-0.49202403 -0.09564411 0.029056584 -0.41227883 -0.013878798 -0.18459451 1.2197824 0.13135165
-0.77498305 -0.057261463 0.4792179 -0.14557238 -0.30326906 0.34383652 -0.04740214 0.0858924

fc1.weight f4 [120, 400]
00000000: 7115 43bd 2106 30bb 2a26 363d e8f8 0c3c
00000010: 105e bb3c bc9f 40bc bb65 733c bdfa 8ebb
00000020: 03b5 a9bc 660c 8e3c 9dd7 1d3c 8692 97bd
00000030: ec47 67bc 5100 4f3d 1e40 973d afc2 19bd
00000040: df21 323d be2f a7bc 4860 08bb 9bbb 283b
00000050: be46 8abc 88b7 0a3d eb60 8f3d 6243 08bd
00000060: 0a56 f2bc 20fe d8bb 4ad8 6abc 8014 f13c
00000070: cb61 11bc d16d e03c b1d3 0a3d 1960 c93b
00000080: 88be 10bd 457a ed3c 0138 803d 94bf a73c
00000090: ef4a aabc 6517 4bbd b1bf 493d efc7 223d
000000a0: fac2 1ebc 3b98 9f3c 9420 82bc 0a83 263d
000000b0: 1163 10bd e3da bfbb 3b29 623d 140e 293d
000000c0: 2ff1 1e3d 82c7 003c 7e76 fabc dbb7 333d
000000d0: 7c52 8c3c ee6d 0fbd 0cb0 4fbd 0347 c7bb
000000e0: f39f bbbc fa7f 203c b718 6cbc e198 07bd
000000f0: 529b 14bd 5d73 aebc 2e49 1fbd b651 91bd
00000100: ffe6 7dbc 0b4d b63c 8e5c 943c c2b5 023d
00000110: a690 10bc af49 fb3c 13b1 74bd acf7 12bd
00000120: 15a0 9f3c 2a6b 353d 6eea fc3c 4732 87ba
00000130: d088 afbc 7550 8f3c 2658 b1bc c9cc 293c
00000140: 85f5 58bc 377f d1bc 5dfc 3dbd 2ba2 4dbd
00000150: a431 843c 02b8 5abd ddc5 a9bd fa90 a2bc
00000160: c3f0 9cbb d9e1 88bc 1226 efbc ace3 c3bc
00000170: 1657 62bb e550 3fbc 1dda 303c 949c 23bd
00000180: e4b5 2a3d 1533 693d 18a9 883c fb9f 4bbd
00000190: 589a 68bd 356c b9bd ae35 50bd 5574 6fbd
000001a0: f2d7 45bd 0588 31bd e89d 8dbd 8138 94bd
000001b0: 500a 68bd 7c5a 9dbd cf5d 433c 3b1d f1bc
000001c0: 6e42 6fbb 1b88 babc 7a90 fbbc e175 b13c
000001d0: a83a 693c e133 6fbd 21b0 cdbb 4beb 49bd
000001e0: 1c81 62bc 67cb 34bc ec2f 043d 6b8f 6f3c
000001f0: d2ba cbba 33b9 a63d 390c 3a3d 9748 4e3d
00000200: 13aa f23b 95bf 1c3a ce07 9d3d 6c03 8a3c
00000210: b2db 493d f43c 073d 689c 8a3d ed82 81bc
00000220: 7150 89bd d7c2 053b 98c1 7abc 4ca6 103d
00000230: ccc8 863d 79e1 bcbc b574 42bc 2dd2 3f3d
00000240: 26f4 2e3d b668 103d b033 ce3c b981 983c
00000250: 0d89 1a3d 2876 9d3c e6ff e5bb ad45 0d3d
00000260: 074c 94bd 1c16 30bd 9812 753c fe6c 27bd
00000270: 0d56 44bc 5adc df3c 0696 bd3d b515 943d
00000280: 0647 503d 1c47 e73b ca74 863d af42 2c3d
00000290: a5c1 8dbc 00ab 8a3d 3232 aaba 2aab 89bd
000002a0: 0b56 103b 8885 98bd d744 d1bc 32f8 59bc
000002b0: bcc3 23bd ce1a 0a3c 57cc 02bb 5bff 403b
000002c0: 062b 15bb f9b0 9dbc 249a 7b3c 4506 0e3d
000002d0: e04b 0cbd 8c91 173c cac1 f83c 0ba5 943c
000002e0: 92dc 0abd a0cc 103d a322 5bbd 084b f7bc
000002f0: 9f54 0dbd f125 2bbc 51e4 a6bc ab22 5bbc
00000300: 8cbf fa3c 2be9 de3c f1dd 86bc 99ec 233c
00000310: daa5 9d3c cb02 cbbc a879 e7bc 3907 ffbc
00000320: 9f51 0abd bbd2 10bd 8086 4b3b 5641 22bb
00000330: 26d7 cdbc b1f5 34bc ef5f 29bd d484 74bc
00000340: d30d 96ba 430c 393c 0aef 253d 1d33 663a
00000350: 4236 f33c 1ec5 273d e2c4 4dbc c48f d73c
00000360: 605e 893d c5f0 4c3d 8351 ec39 d668 86bd
00000370: 530e 21bb 60bd 423d f8b5 173d 975b 82bd
00000380: 7ab8 c7bd 6c87 893d 94e7 dbbc c43c ddbb
00000390: 533a fc3c 6216 e03d 6599 243d 8603 073d
000003a0: 4a4c eebc 95da 65bc 8eea 683d 3e24 5b3b
000003b0: 14ba ca3c 5b2f de3a 0480 e53a 4f22 a53d
000003c0: 1acf 8a3d 3188 43bc 9ef9 a53c 3c23 a23a
000003d0: c397 8b3d f42a 513d 180e 443d d135 333d
000003e0: 33b4 333d 62c5 943d 9d96 2bbd 51ab 1ebd
000003f0: 98b0 463d 6de4 a83c c6ed 043d c141 eebb
-0.04762787 -0.0026859122 0.04446999 0.008604266 0.022872001 -0.011756834 0.014855797 -0.0043633864
-0.020716196 0.017339896 0.009633926 -0.07400994 -0.014116269 0.05053741 0.07385276 -0.03753918
0.043489333 -0.020408507 -0.0020809341 0.0025746587 -0.016879436 0.033866435 0.070009075 -0.033267386
-0.029582042 -0.006622091 -0.014333794 0.02942872 -0.008873413 0.027396115 0.03389329 0.006145489
-0.035337955 0.028988967 0.06260682 0.020477094 -0.020787684 -0.049582858 0.049255077 0.039741453
-0.009690041 0.019481769 -0.015884675 0.040652312 -0.035250727 -0.0058549508 0.0552151 0.04127319
0.03880423 0.007860066 -0.03057408 0.04387651 0.017129175 -0.035016946 -0.050705 -0.0060814633
-0.022903418 0.009796137 -0.014410189 -0.03310478 -0.036280937 -0.021295244 -0.03888815 -0.07095663
-0.015496968 0.022253534 0.01811054 0.03191162 -0.008823549 0.030674784 -0.059739184 -0.03588073
0.019485513 0.044291653 0.030873504 -0.0010314666 -0.021427542 0.01749442 -0.021648478 0.010363766
-0.01324213 -0.025573356 -0.04638325 -0.050203484 0.016136952 -0.05339814 -0.082896926 -0.01984452
-0.004789443 -0.016709255 -0.029192958 -0.023912273 -0.003453677 -0.011677002 0.01079419 -0.039944246
0.04167737 0.05693348 0.016682193 -0.049713116 -0.05678782 -0.09053842 -0.050832443 -0.058460552
-0.048301645 -0.04334261 -0.06914884 -0.0723734 -0.05665046 -0.07683274 0.011924221 -0.029432883
-0.00365081 -0.022769978 -0.03070854 0.021662654 0.014235176 -0.058399085 -0.0062770997 -0.04929666
-0.013824727 -0.011034823 0.032272264 0.014621596 -0.0015543348 0.08140793 0.045421813 0.050362196
0.0074055283 0.00059794757 0.07667504 0.016847335 0.049281783 0.033017114 0.067681134 -0.0158095
-0.06704796 0.0020410323 -0.015304945 0.035314843 0.06581268 -0.023056732 -0.011868645 0.0468313
0.042713307 0.03525611 0.02517113 0.018616544 0.037728358 0.01922138 -0.007019031 0.034490276
-0.072410636 -0.042989835 0.014958046 -0.040875427 -0.011983407 0.027326752 0.0925713 0.07230703
0.050848983 0.0070580374 0.065652445 0.042055782 -0.017304251 0.06770897 -0.001298493 -0.067221
0.0022023942 -0.07447344 -0.02554552 -0.013303803 -0.03998159 0.008429242 -0.0019958222 0.0029449079
-0.002276124 -0.019249426 0.015356574 0.034673948 -0.034252048 0.00925101 0.030365843 0.018145105
-0.03390176 0.035351396 -0.05349983 -0.030187145 -0.03450453 -0.010446058 -0.020372542 -0.013374965
0.030608915 0.027210793 -0.016463252 0.01000514 0.019244123 -0.024781605 -0.028256252 -0.031131374
-0.033769246 -0.03535722 0.003105551 -0.0024758182 -0.025127005 -0.0110449055 -0.041351255 -0.014924247
-0.0011448212 0.011294427 0.04051117 0.000878142 0.029688958 0.04095947 -0.012559148 0.02631367
0.06707454 0.050034303 0.0004507416 -0.065629646 -0.0024575188 0.047543883 0.037038773 -0.063651256
-0.09751983 0.06715283 -0.026843823 -0.0067516286 0.03078953 0.10941769 0.04018535 0.032962345
-0.029089112 -0.014029165 0.056864314 0.003343835 0.024746932 0.0016951369 0.0017509465 0.080631845
0.06777783 -0.011934326 0.020260628 0.001237012 0.068160556 0.051066354 0.047865003 0.043752495
0.043873023 0.0726421 -0.041891683 -0.0387376 0.048508257 0.020616734 0.03245332 -0.007271022

fc1.bias f4 [120]
00000000: 4b86 a2bc 6fd0 063c b3dd 9d3d 814b 813d
00000010: 4c60 8a3b 66e9 0ebd 127f 133e 00d9 0e3e
00000020: cfa8 0dbd 6d18 3a3d 1925 383e 7ecf b5bb
00000030: 553f 99bd c0f0 7abd cb83 f0bc 4007 073d
00000040: b8fc 8bbc 82fd d23d bf16 fb3d 3472 81bc
00000050: 73ef 563d ec5c 77bd b450 0f3e 699b 2dbd
00000060: 56c3 643d 6ff3 453d b156 11be 9602 373d
00000070: 655b 653d d402 213d d478 2b3e 6964 833d
00000080: c699 28bd d0bd 84bd 9271 433e edf7 c6bc
00000090: 3452 74bd 3beb 84bd 3d0e 113c 23ca afbc
000000a0: f97e 43bd bef0 ef3c 3fb0 c93d ecd7 1d3d
000000b0: 7521 c5bd bf44 10be 71a7 873d 3e01 62bc
000000c0: cec2 373e e1f0 3e3e 5ff6 43bd ec24 a53d
000000d0: 0de4 ed3c 0445 5b3d 1e30 0a3c d40d bb3d
000000e0: 49d9 2cbd 0ba0 203d a3de 933c 0f84 dbbc
000000f0: 185a af3c 8609 cdbc 5350 0c3c 58e1 473c
00000100: 5c98 bfbc 8732 153e f576 3ebd 2195 703e
00000110: 15be a0bd 217f 2bbd a698 9dbd 3160 48be
00000120: 2e3c b13d 7b6c 7dbd 70f0 693c a3ef 933d
00000130: 9c51 bbbb 211c e53d 7f96 79bd bf9c dcba
00000140: 2e1a 353d 063d 323e 66ad 4e3b e014 283d
00000150: 77d0 983c 4e41 f33d 7c0a 193b 45a0 133e
00000160: e0bc be3b 8351 5dbd d6b4 6a3d caea bd3d
00000170: 18dd 86bc 17fe 4abc d34b 41bd fa5c b8bd
00000180: b005 15bc f119 e23d e26c da3b aebb 47bd
00000190: 97e9 c93d 993e debb ae6c c43c 3796 03bd
000001a0: f86c c7ba c0ea 0cbe 76e5 913d 0d1c 9d3d
000001b0: 7065 923c f8ea 993c 72a3 c5bc d943 883d
000001c0: 60a8 403d 0fca 853c 188b 23bb d931 243d
000001d0: a465 8abd c0dc b7bc c1f6 f13d 2675 893d
-0.019839427 0.008228405 0.077083014 0.06313229 0.0042229053 -0.034890555 0.14403942 0.13949966
-0.034584817 0.04543345 0.17982902 -0.0055484166 -0.07482783 -0.061264753 -0.029359719 0.0329659
-0.01708828 0.10302259 0.12260198 -0.015801527 0.05247445 -0.06039135 0.1399563 -0.04238454
0.05585035 0.04832786 -0.14193226 0.0446802 0.055995364 0.039309338 0.16745311 0.06415636
-0.041162275 -0.06481516 0.19086292 -0.024288142 -0.059648708 -0.06490179 0.008853492 -0.021458691
-0.047728512 0.0292896 0.098480694 0.038535997 -0.09625522 -0.14088725 0.06623734 -0.0137942415
0.17945406 0.18646576 -0.04784238 0.08063683 0.029039407 0.053532615 0.008434324 0.09133497
-0.042199407 0.03921513 0.018050497 -0.026796369 0.021405265 -0.025028955 0.008564073 0.012199722
-0.02338808 0.14570056 -0.046500165 0.23494388 -0.07848755 -0.041869286 -0.07695131 -0.19567944
0.086540565 -0.061871033 0.014278516 0.072234415 -0.0057165157 0.11187006 -0.06093454 -0.0016831382
0.04421442 0.17406091 0.003153646 0.041035533 0.018654091 0.1187769 0.0023352196 0.14416607
0.0058208555 -0.054032814 0.057301365 0.09273298 -0.016462848 -0.012389681 -0.047191452 -0.09002109
-0.009095594 0.11040104 0.006665812 -0.04876297 0.09859007 -0.0067823646 0.023977604 -0.032125678
-0.001521497 -0.13761425 0.07123844 0.07671366 0.017870635 0.0187888 -0.024125788 0.06653566
0.047035575 0.0163317 -0.0024954733 0.0400866 -0.06757668 -0.022444129 0.11814643 0.067117974

fc2.weight f4 [84, 120]
00000000: 2cfe 5b3d 2c80 19bd 921e bc3b e8f1 7fbc
00000010: beb9 0b3d 71a7 8bbd de50 95bd 627e c43a
00000020: 1516 1bbd 9ec5 8dbd 5cf9 6abd 83c0 a03d
00000030: 9301 a1bd b3bd 7bbd e01a 643b 8f3b 7f3d
00000040: f648 8e3d 0b1c e4bc 72ec 9e3c 11d1 d73c
00000050: 1db5 323c a8ba 2fbb a8b6 93bd ad44 48bd
00000060: c4d2 9b3d 215f 73bd e177 00bd e861 c5bc
00000070: fbb7 6ebd d7b6 b5bd 7630 1b3d f260 0c3d
00000080: 4a45 4f3d d4bc 053d 4b14 a9bb 0d8d a1bb
00000090: 4968 85bd e28c a2bd eeaa 533c 3cc8 493d
000000a0: f3a1 82bd 8c5b 3bbd 9996 80bd 8d24 a43d
000000b0: eb4f 62bd 8bfe 06bd 9450 803d 48f1 ac3d
000000c0: 89a9 883d 9d66 98bc fe64 893d 2f3c 7b3d
000000d0: 9a84 bebd a7ae 33bd 1636 993c 9029 f23c
000000e0: de68 42bd b7f3 ddbc ace1 1bbd 24a1 29bd
000000f0: df2d 8cbd cdfd 5f3d 42bd 463d e8d2 93bd
00000100: 926a 72bd c878 80bd d52e 0dbc 7920 acbd
00000110: ad5d 80ba 05f5 36bd e440 493d 7527 60bc
00000120: ca75 3e3d 11ac 76bd ffb6 b2bd c5a8 0cbd
00000130: 598a 20bd cefa 6a3d 61f9 85bd 207b 8d3d
00000140: f8cd 0bbc 190b 353d 0685 9f3c ab84 a1b9
00000150: 2f02 233d 5f4f 67bd f410 8fbc a542 1abd
00000160: a095 06bd 5b8b cf3b 2518 27bc e181 5a3b
00000170: 2661 c8bc 60fb c93c b33e 653d e2d3 c2bd
00000180: 0ad1 bfbd 1416 3dbd 5e0c 28bd 4f6d db3c
00000190: 51b0 433d 1811 2a3d 3490 b23d c207 bfbd
000001a0: 81c9 0c3d 31a0 f43c bde7 2fbd 3bec 95bd
000001b0: 225c f23b f0ed 39bd 55cb 61bd 7b19 683c
000001c0: bada a7bb 0b55 523b e265 873d a9cc 90bd
000001d0: d7a6 9fbc 9fba d6bb 6141 553c 97d4 7d3b
000001e0: 3143 b13d d631 bebd e571 333e 606e ab3d
000001f0: af4f cfbd 2166 233c c26f a23a f04b ddbb
00000200: 49bd 723d efca 83bd 28ae dfbd ccdd 34bc
00000210: 6d1e afbd 94bf 273b 191b c3bd a261 a0bd
00000220: b69f 0c3e 88ba 903d 4d2b 003e c55e c5bd
00000230: 2751 583d 6282 9c3d bd87 1ebc 9510 b03c
00000240: 7c74 4e3c d77c 3a3d f2fe 07be 7ffc 1abc
00000250: 71a0 47bd 280b 02bd cf64 313d d8cb e2bd
00000260: e0d0 cdbd ed59 803d 4e54 1f3e 3a31 8d3d
00000270: 48a1 90bd b7cf b4bd b1f3 02be 527c 46bc
00000280: 37fe ed3c 7c48 fcbd c749 67bd c3d6 933d
00000290: f9bb dbbd a5a9 a8bd 0b6e 80bc 3f43 a13c
000002a0: b7c6 f83c 59ba da3c 075b 953d ebb5 87bc
000002b0: ac4d ffbd 0b8c 053e 608f 843d 4164 153d
000002c0: 1b8c bcbc 27c8 073e ec08 153d 1160 62bd
000002d0: e92a b23d d969 093e 01f2 1dbd 7db8 a63c
000002e0: 9573 c93d 7407 9f3d f0ff 7dbd a6ba 833d
000002f0: 52e4 803b c88c 0c3c 212d 89bc 7571 4bbd
00000300: 68c6 11be fafa 653d 8c02 083d ddb3 a4bd
00000310: 4d65 04be 4a19 57bd 19d8 1eba 7ade d1bc
00000320: c82f 543d a026 34bd af61 d4bd d0fb 90bd
00000330: ebb8 09bd 7805 fb3d 2c3d 3e3a e654 d5bc
00000340: 77eb 983d b3f0 79bd a16f 7ebd d769 c53d
00000350: 118f cd3c 0291 88bb 7b9f ab3d 0b02 bebd
00000360: d462 a23c 26ac ad3d 187c 883d b035 be3c
00000370: 173d cdbb a6f6 d9bd a1a7 593d f204 413d
00000380: 0621 073d 7bc5 3fbd 1a3e b13c 4582 ebbd
00000390: ebc2 463d eb16 b03d 4366 5c3d 68b3 443d
000003a0: e7c4 193d 8045 f03c 4fd9 b4bd dc26 2fbd
000003b0: 42dc 303d f815 593d b74b f1bd d6c3 263d
000003c0: 85a4 29bd 1b3f 063d 4821 ea3b 63da c0bd
000003d0: e154 c9bd 32aa 2a3d d160 e8bd 7282 05be
000003e0: 4823 ad3d c06a 84ba d8db c5bd b4bf 263b
000003f0: 2f76 ae3d a4da 493c 4a47 a6bd 6506 33ba
0.053709194 -0.03747575 0.005740949 -0.01562164 0.034112684 -0.06819046 -0.07290815 0.0014991278
-0.037862856 -0.06922458 -0.057366714 0.07849219 -0.078616284 -0.06146021 0.0034806058 0.06231266
0.0694751 -0.027845403 0.019399855 0.026344808 0.010907439 -0.0026814137 -0.07212573 -0.04889362
0.0760856 -0.059416894 -0.031364325 -0.024094537 -0.058280926 -0.088727646 0.037888013 0.03427214
0.05060319 0.032650784 -0.00515989 -0.0049301446 -0.065140314 -0.079370275 0.012919171 0.049263224
-0.063785456 -0.045741603 -0.06278724 0.08014784 -0.055251997 -0.032957595 0.06265369 0.08444458
0.06672961 -0.018603617 0.06708716 0.061336692 -0.093026355 -0.043867733 0.018702548 0.029560834
-0.04746329 -0.027093751 -0.038057014 -0.04141344 -0.06844687 0.054685403 0.048520334 -0.072179615
-0.059183665 -0.06273037 -0.008617123 -0.08404631 -0.0009793543 -0.044667263 0.04913415 -0.013681282
0.04649905 -0.06022269 -0.0872631 -0.03434064 -0.03919444 0.057368092 -0.06541706 0.0690825
-0.0085329935 0.044200037 0.01947261 -0.00030807158 0.039797004 -0.05647218 -0.017464139 -0.037661213
-0.032857537 0.006333751 -0.010198628 0.0033341574 -0.024460386 0.024655998 0.055967998 -0.0951307
-0.09366043 -0.046163633 -0.04102742 0.02678552 0.04777557 0.041520208 0.08718911 -0.093276516
0.034371857 0.029861541 -0.042945612 -0.07320448 0.007396237 -0.04539293 -0.055125553 0.014166231
-0.00512251 0.0032094147 0.066112295 -0.07070286 -0.019488735 -0.0065530087 0.013016076 0.003873145
0.08655394 -0.09286849 0.17523916 0.08370662 -0.1012262 0.00997308 0.0012392926 -0.006753437
0.059262548 -0.06435191 -0.109218895 -0.011039209 -0.08550725 0.0025596367 -0.09526653 -0.07831122
0.137328 0.07066828 0.12516518 -0.096372165 0.052811768 0.07642056 -0.009675917 0.021492282
0.012601014 0.045529213 -0.13280848 -0.009459614 -0.048736993 -0.03174892 0.04330903 -0.11074036
-0.10049605 0.06267152 0.15559503 0.06894155 -0.07062012 -0.08828681 -0.12788273 -0.012114601
0.029051883 -0.12318513 -0.056466844 0.07218697 -0.10729212 -0.08235482 -0.015677473 0.019685386
0.030368192 0.026700186 0.07292753 -0.016566237 -0.124659866 0.13041703 0.06472659 0.036472563
-0.023016026 0.13259946 0.03638546 -0.055267397 0.08699591 0.13419284 -0.03856087 0.020351643
0.09836499 0.077650934 -0.06201166 0.06432085 0.003933468 0.008578487 -0.016745152 -0.049668748
-0.14235842 0.056147553 0.033205554 -0.08042119 -0.12929268 -0.052514352 -0.0006059423 -0.02561878
0.05180338 -0.04398215 -0.10370194 -0.070792794 -0.033623617 0.122569025 0.000725704 -0.02604146
0.07466786 -0.061020564 -0.062118176 0.09639328 0.025092633 -0.004167677 0.08380028 -0.092777334
0.019822516 0.084801 0.06664294 0.02321896 -0.006263386 -0.106427476 0.05313838 0.047123857
0.032990478 -0.04681919 0.021636058 -0.11499456 0.048525732 0.08598121 0.053808462 0.048022658
0.037541296 0.029330015 -0.08830511 -0.04276167 0.043178804 0.052999467 -0.117820196 0.040714107
-0.041416664 0.032775026 0.0071450807 -0.09416654 -0.098306425 0.041666217 -0.11346591 -0.13038042
0.08453995 -0.0010102615 -0.096610725 0.0025443854 0.085186355 0.012320194 -0.08119066 -0.0006829261

fc2.bias f4 [84]
00000000: 7905 7abd dd39 d93d 4715 91bd 1aee 25bc
00000010: 87c7 90bd 4e34 3c3e fbf0 91bd f8ba 92bd
00000020: 95aa babd b1b5 aa3d 9228 bebd 584d 6dbc
00000030: 2336 ec3d 50e2 6a3b aa4f debc d4a5 ed3d
00000040: 9b1f cdbd bfee 86bd 4802 4f3e 981b 313c
00000050: 5864 76bd 7158 023e 2b9d a4bd d531 023d
00000060: 5a4f ff3d 327c 8b3e dda7 ad3e 6e1e 833e
00000070: 4e68 443e 97c0 1e3e 4279 74bd 1a40 443e
00000080: 4ddf 2dbd a559 3e3a f5c7 653e c2ba a23d
00000090: 8543 423d 0146 853b 62b0 5a3e b432 38bd
000000a0: 1dcf b5bd 305d d63d 5719 55bd 4a22 163e
000000b0: d79e ba3c 623c 153e 7ca6 cf3b c396 253e
000000c0: 7af1 4e3d ea6f c13c 83b3 98bc 4637 253e
000000d0: 23ad a0bd e2d6 483b ed90 763e 8ee9 50bd
000000e0: 4b82 fb3d 8f13 ba3e 1b00 9a3e 3b65 cdbd
000000f0: 924a 0c3e 3084 3dbd 9782 f33c c85f 94bc
00000100: aa17 0b3e ab0d 1b3e eeac 37bd f666 e03a
00000110: 015f 7c3d 4e6e be3b 4fb5 1e3a dd87 a73c
00000120: e868 0fbd e3cb aa3c a0a6 403e 545e 3b3e
00000130: 2cc9 f73d a803 823d 61d4 97bd b362 4b3e
00000140: 65ae 5bbc b490 d3bd 2d8a 8d3d 6b19 a93c
-0.061040375 0.1060674 -0.070841365 -0.010127569 -0.07069307 0.18379328 -0.071260415 -0.07164568
-0.09114567 0.08335436 -0.09285082 -0.014483772 0.11533763 0.003584046 -0.027137596 0.11603895
-0.10015794 -0.06588506 0.20215714 0.0108098015 -0.06015429 0.1272905 -0.0803779 0.031785805
0.12466307 0.2724319 0.33917132 0.25609154 0.19180414 0.15503155 -0.059685953 0.19165078
-0.042449284 0.0007261283 0.22439559 0.079457775 0.047427673 0.004067183 0.21356347 -0.04497023
-0.08877394 0.10466993 -0.05202612 0.14661518 0.022780819 0.14573815 0.006336985 0.16170792
0.05052326 0.023612935 -0.018640285 0.16134366 -0.07845523 0.0030645658 0.24078722 -0.051003985
0.12280711 0.36343047 0.30078205 -0.10029074 0.13700321 -0.046268642 0.029725356 -0.018112078
0.13583246 0.15141933 -0.044842653 0.0017120529 0.06161404 0.005811489 0.0006054239 0.020450527
-0.035012156 0.020849174 0.18813562 0.18297702 0.12098917 0.063483536 -0.07413555 0.1986187
-0.013408278 -0.10330334 0.069111206 0.020642003

fc3.weight f4 [10, 84]
00000000: 1143 bd3d bce5 1abe 7d24 ebbc 24fc bf3b
00000010: f168 c53c 6254 c23d 5e49 353a 368e 473c
00000020: 7874 b23d 44ac 80bd 9eb4 c2bd fc0a 7ebe
00000030: 2e63 85bd a82e 19be ecc9 903e d3fc 843d
00000040: 72d4 1abd cd2a 9dbc 15d9 26be 4e8d 05be
00000050: 304c ffbd 589e a93d 851c c83d 39bb bbbd
00000060: 2989 7d3d eb70 7cbe 41db 77be 3450 12be
00000070: 66ca a0bd e3ea 4a3e 766f 43bd 9931 55be
00000080: 0f7f fb3a 360e 87bd bccf 423e 3e1b 103e
00000090: b548 5abd b033 54bd 89e4 a3bd 6b1d a13d
000000a0: cff4 02be 1531 42bd 554d 033d 3d6e fb3d
000000b0: db96 aa3d f4ed 6a3e 8b1e bcbc b9a2 363e
000000c0: 2948 e3bd fe02 b7bd 80d3 12bd f606 d83d
000000d0: ec05 903c bd9e 463e 5272 763e d9bd 4c3d
000000e0: cc67 1dbe c076 da3d 1885 73be 0e7e bebc
000000f0: 22ef 57be 6328 f43d 5d33 94bd 8d29 30bd
00000100: 9a36 693d 8ea3 563e d2fc 183e 2063 a7bd
00000110: b6c7 90bd 4a97 7bbc c7d6 2dbe 747a 7fba
00000120: 2b9b 453e 8243 303e 798a 933d 0c40 503e
00000130: 621d 52bd 36e0 0fbd bab7 803e 3b29 51be
00000140: 74e9 80bb 56cb dc3d a465 013e 07a7 103c
00000150: 227e a0bd 0e45 57be bb6e 39bb 6691 8d3e
00000160: 9776 183d 1b9a 91be 3126 afbb 000b 0fbd
00000170: 1e60 98bd 9029 1ebc 456d 4ebd 4b90 703e
00000180: dc6f 8dbe cd9e 893d 40fa 9c3c 72d9 bbbe
00000190: c741 53bd 2592 58bd 214f bb3d ea6d 7b3d
000001a0: f86f ddbd d1bc f73d 4be4 9abd ed91 01bc
000001b0: 99fe ac3d c59d 73be d88c 54be 4269 56be
000001c0: c22c e0bc b5ea 363e 5597 97bc 526a 3cbe
000001d0: 41a2 27bc a320 b03d dc9b 6dbe 30c9 873e
000001e0: 8033 16bd c202 2a3d 2a5a e2bd 6c19 ab3d
000001f0: f102 a33e 7ca1 bf3c 1f8a 8d3d d159 d6bd
00000200: 2b72 b8bd e33f bf3d 3f05 543d c695 93bd
00000210: 87e7 c63d d6ae 093e 1608 823d ee5a d6bd
00000220: c2c2 9e3d 513b ae3e 0654 30be d6bc 4bbd
00000230: 4245 ccbc 5cfb 4dbe 02b7 c03d 9130 3c3d
00000240: 0290 67bd f091 a63c 47ad 90bd 0abe 8e3c
00000250: a062 5dbd 9a2c 5b3d 153c 6e3e f91e dd3c
00000260: 916e b03d e45f fe3d b5ba 1a3e bf70 033c
00000270: d909 0a3e dd3f de3c 4490 d5bb eb0d 93be
00000280: d1f4 afbd e365 c33d bfa6 a03e 846e a7be
00000290: 5e8a 1d3b 7fa1 d43d 8ebb ddbc d7ed 87bd
000002a0: 8e44 a7bd 1fff 8dbb 6665 6dbd dc60 c6bd
000002b0: aee2 febd 4611 fa3d 7464 4abe 3793 c1bd
000002c0: a6a6 7b3d 1bc7 86bd e5fb 16bd 45a8 adbd
000002d0: 3392 103d 3fd0 3b3d 602d 82bd 17de 063e
000002e0: f9a2 22be 9ef3 8a3b 91d9 783e ae47 983c
000002f0: a169 03be 0b8a 0ebe f3a5 d63d b02c bfbd
00000300: 0aeb 20be b1d9 c1bd 7ce4 2e3e 9d22 96bd
00000310: 8bb0 1d3e 17d6 abbd 8b31 35bd b2f3 303e
00000320: bda0 003d 443a 1abe 830e 32bc 1a0b 02be
00000330: 24eb b03d 46da 3c3d 7aa8 4c3e caeb 4fbe
00000340: f9c4 853d 5bca aa3d 39a4 423d f5ee 8abd
00000350: 817e 0fbd b805 503e c35b f9bd ead6 edbc
00000360: 7f54 363c bc34 9ebd 3878 dfb9 f4f3 433d
00000370: eb3d 553d 949a b53c 1007 ff3d 2fae f53b
00000380: 4497 d4bd 7b36 a13e 129c 1bbc 0c2f e13d
00000390: a080 513e 99f2 fd3d f18e 0c3e 088f 01be
000003a0: c637 d7bd b9f9 17be a9fb ddbd 1ebd 26be
000003b0: eaa4 60bd cf04 14bd f2f1 b63d daa3 5b3c
000003c0: 0e3f 0cbe 8d30 e93d 31e7 1fbe c4d4 963e
000003d0: c6b7 d43d ec0b 5ebc 9d2a 583d 3d5d 2d3e
000003e0: 76a9 163e 8c9b 02be 0c08 713e 3aaf 2d3d
000003f0: a9fc b1bd 7c29 4d3e 5e48 2f3d f5aa e5bc
0.092413075 -0.15126699 -0.028703922 0.005858915 0.024097892 0.09488751 0.00069155346 0.012179902
0.08713621 -0.06282857 -0.09507106 -0.24808878 -0.06513058 -0.14959204 0.28279054 0.06493535
-0.03780026 -0.019185448 -0.16293748 -0.13042185 -0.124657035 0.08282155 0.09771065 -0.09166569
0.061898384 -0.2465245 -0.24204732 -0.14288408 -0.078511044 0.19816165 -0.04771372 -0.20819701
0.0019187647 -0.065945074 0.19024557 0.14072892 -0.053291995 -0.051807106 -0.08002574 0.07866939
-0.127887 -0.04741009 0.03205617 0.12276886 0.08329555 0.22942334 -0.022963783 0.17835511
-0.11097748 -0.089361176 -0.035846233 0.10548203 0.017580949 0.19396491 0.24067047 0.04998574
-0.15371627 0.10667181 -0.2378124 -0.023253467 -0.21087316 0.11921766 -0.07236359 -0.043008376
0.056936838 0.20960829 0.14940193 -0.081732035 -0.07069342 -0.015355894 -0.16976462 -0.0009745725
0.19297473 0.17213252 0.07204146 0.20336932 -0.051297553 -0.035125934 0.25140172 -0.20425884
-0.00393408 0.10780971 0.12636429 0.008828885 -0.07836558 -0.21022436 -0.002829476 0.27649993
0.03722247 -0.28437886 -0.005345129 -0.0349226 -0.07440208 -0.009653464 -0.050397176 0.23492543
-0.27624404 0.06719742 0.019162297 -0.36689335 -0.051576402 -0.05287375 0.09145952 0.06138412
-0.10812372 0.12096561 -0.07563075 -0.007908327 0.08446998 -0.23790653 -0.20756853 -0.2093859
-0.027365092 0.17862971 -0.018504778 -0.18399933 -0.010231555 0.08599975 -0.23203987 0.2652068
-0.036670208 0.041506536 -0.11052354 0.08354458 0.31838182 0.023392431 0.0691111 -0.1046635
-0.09006151 0.09338357 0.051762816 -0.072063014 0.09712129 0.13445601 0.063491985 -0.10466562
0.07751991 0.3402963 -0.17219552 -0.049740635 -0.024935368 -0.20115417 0.09409906 0.045944754
-0.05653382 0.02033326 -0.070643 0.017424602 -0.054049134 0.053509332 0.23265107 0.026992308
0.08614839 0.124206334 0.15110286 0.008022486 0.13480319 0.027130062 -0.006517442 -0.28721556
-0.08591617 0.09540918 0.31377217 -0.32701504 0.0024038772 0.103823654 -0.027066972 -0.06637161
-0.08167373 -0.0043333913 -0.05795803 -0.09686443 -0.124455795 0.12210326 -0.19764882 -0.09451907
0.061438225 -0.06580945 -0.03686132 -0.084793605 0.035295676 0.045852896 -0.06356311 0.13170658
-0.15882482 0.004240467 0.24301745 0.018588867 -0.12833263 -0.13919847 0.10480871 -0.09334695
-0.1571466 -0.094653495 0.17079347 -0.07330821 0.15399377 -0.08390444 -0.0442367 0.17280462
0.031403292 -0.15061289 -0.010867718 -0.12699547 0.086385995 0.0461066 0.19986144 -0.2030479
0.0653171 0.083393775 0.047519896 -0.06783859 -0.035032753 0.20314682 -0.12175705 -0.029033143
0.011128544 -0.07724902 -0.00042623444 0.047840074 0.052061003 0.022168435 0.12452519 0.007497571
-0.10380414 0.31486878 -0.009497659 0.109953016 0.20459223 0.123997875 0.13726403 -0.12652218
-0.10508685 -0.14841355 -0.10839016 -0.1628308 -0.054844774 -0.0361374 0.08932866 0.0134057645
-0.13695928 0.113862135 -0.15615536 0.29459202 0.103866145 -0.013552647 0.052775014 0.16930099
0.14713082 -0.12754649 0.23538226 0.042403437 -0.08690769 0.20035356 0.042793624 -0.02803562

fc3.bias f4 [10]
00000000: a09d 5ebe 1212 06bf 2856 eb3d 280c c53e
00000010: 76a3 0f3f 383b 20bd d71a 103e e6bd 80be
00000020: 77ce ee3e 943e 9bbe
-0.21739817 -0.52371323 0.114910424 0.38485837 0.56108797 -0.039118975 0.14072739 -0.2514488
0.46641895 -0.3032118
