neuralnetwork.pth (torch, 36871 bytes, 10 tensors)

linear11.weight f4 [32, 63]
000000 8f 0e b3 bc 69 49 a9 3c 28 04 c5 bc 50 d0 04 bd
       -0.021857528 0.020664888 -0.024049833 -0.032425225
000010 bf cb 44 3d 77 08 4e 3d 6e c9 c5 3d d3 57 f6 bc
       0.04804587 0.05030104 0.0965756 -0.030071175
000020 52 60 a6 bd 31 db 48 3d d6 7d 50 3d a0 64 51 bd
       -0.081238404 0.049037162 0.050901257 -0.051121354
000030 7f 11 c0 bd 01 ec a7 3d 83 22 bd bd 44 de d3 bd
       -0.09378337 0.08199311 -0.09235098 -0.10345128
000040 72 32 d0 3d 61 cc c2 bd ab d5 ce bd ac e0 56 bd
       0.10165872 -0.095116384 -0.10099348 -0.052460358
000050 f8 11 c8 bd ec f5 df bd 9a a2 a6 bd 3c 86 c5 bd
       -0.09769052 -0.10935578 -0.081364825 -0.09644744
000060 95 17 02 bd 24 74 e3 bc ab 70 be bd d4 de 82 bd
       -0.03176077 -0.027765341 -0.092988335 -0.06390157
000070 e9 9f b1 bd 6e ba cb 3b 45 f8 ee bc 27 e1 b2 3d
       -0.086730786 0.0062172925 -0.029171119 0.08734351
000080 f5 7d 7c bd 7f c2 c4 bd 69 60 d7 bd 16 6f e5 3d
       -0.06164356 -0.0960741 -0.10516436 0.112028286
000090 f4 ce 82 bd 74 b3 18 bb 6d f9 03 3c 52 95 f6 bd
       -0.063871294 -0.0023300322 0.008055073 -0.12040199
0000a0 62 33 5c 3d 04 1f 07 be 27 ee 86 bb 22 26 bc 3d
       0.05375994 -0.13195425 -0.0041177454 0.09186961
0000b0 28 35 37 3d 03 e0 a4 3c 71 1a ad 3d 1c e3 f8 bd
       0.044728428 0.020126348 0.08452309 -0.12152693
0000c0 d3 ba b4 bd 7b 4e 21 3c 5b 20 6c bd 59 e7 98 3c
       -0.088246964 0.009845371 -0.057648044 0.018665003
0000d0 de 20 2d bd 1a f6 95 bd 52 58 1d bd d5 23 ce bd
       -0.042267673 -0.07322331 -0.038414307 -0.10065428
0000e0 9c 9b d7 bd 34 30 c6 bd 12 4d 5c bd 2d 38 84 bd
       -0.10527727 -0.09677163 -0.053784437 -0.06456027
0000f0 e6 90 77 3d 8e 96 98 bd b5 c2 fe bd 40 df 60 bc
       0.06044092 -0.07450591 -0.12439481 -0.013725102
000100 2c 70 14 be 92 e4 b0 bd 2d a0 2f 3b 4e 72 a5 bd
       -0.14495915 -0.08637346 0.0026798353 -0.080784425
000110 c2 d7 f5 bd 64 5c d4 bd 7b 67 39 bd a0 01 cf 3d
       -0.12004043 -0.103691846 -0.045264702 0.10107732
000120 74 dd 9c bb 14 8f 9b bd 07 5c d2 bd 51 95 db bb
       -0.0047871415 -0.07595649 -0.10271459 -0.0067011495
000130 e9 34 1e bd 8e 09 1e be ad 54 f8 bd cc fb 8e 3c
       -0.038624678 -0.15433332 -0.121255256 0.01745405
000140 40 b8 be 3b f8 0e 57 bd ff 42 05 be fb a6 c3 bd
       0.005820304 -0.05250451 -0.13013838 -0.09553333
000150 66 c4 0e be d5 d3 b0 3d 5f 13 8c 3c 8a b0 aa 3d
       -0.13942108 0.08634154 0.01709908 0.083344534
000160 1b 5c 1e bd ce 02 76 bd 65 45 57 3b c6 09 15 be
       -0.038662057 -0.06006127 0.003284776 -0.1455451
000170 12 8c 2a bc dc 79 80 3d f7 91 2b 3d c6 5b b2 3d
       -0.010409372 0.06273243 0.04188725 0.08708911
000180 6a fd 3c 3d 73 c9 35 bd 3e ae 76 bd 45 7c 2f 39
       0.046140112 -0.04438157 -0.060224764 0.00016735595
000190 de 2a 86 3d 08 2a 2d be e2 3c d2 bd 1c c2 cf bc
       0.06551145 -0.16910565 -0.10265519 -0.025361113
0001a0 c4 0f 2c 3d 8a 90 bb 3d 54 89 97 bd 38 6d de bd
       0.042007223 0.09158428 -0.0739924 -0.108606756
0001b0 b8 cd e1 bd 80 78 5e 3d ef e0 b9 3c 7c d5 b7 bd
       -0.11025566 0.054314137 0.022690265 -0.08976266
0001c0 31 fc 86 3d ed be be 3d d8 88 ff bd 1d f1 bb 3d
       0.065910704 0.0931376 -0.12477273 0.09176848
0001d0 fb b6 49 bd 5f 94 87 bc 38 b0 fb 3c ca 05 72 bc
       -0.04924677 -0.016550241 0.030723676 -0.014771888
0001e0 64 c1 00 be b2 ab 3f 3c 7e ce b9 3d df c7 ce bd
       -0.12573773 0.01169865 0.090725884 -0.10096716
0001f0 e2 fd 7c bd a5 4f ea bd 02 f3 33 be 1e ec 1f 3b
       -0.06176556 -0.11440972 -0.17573169 0.0024402211
000200 60 fd 17 3e d7 42 dd bd 56 64 90 3e aa 26 82 3d
       0.14842749 -0.10803764 0.2820155 0.06355031
000210 27 a9 f8 bd 27 6e f9 bc 49 ef 81 bd c5 e8 1f be
       -0.12141638 -0.030448033 -0.06344468 -0.15616138
000220 28 c9 a9 3b d3 82 30 3e ff 5c c9 bd 40 e1 88 3e
       0.0051814504 0.17237405 -0.09832191 0.26734352
000230 6a c0 31 3d 30 c3 01 be ce 87 0d 3d af b6 d4 bd
       0.04339639 -0.12672114 0.03455334 -0.10386407
000240 86 ff 40 be f8 fe 81 3c 3c 5a 13 3e 8f 98 dd bd
       -0.18847474 0.015868649 0.1438989 -0.10820114
000250 f1 1e 86 3e b1 1e 85 3d ff f7 0f be 54 4e 41 3e
       0.2619548 0.064999945 -0.14059447 0.18877536
000260 95 b9 a2 be 3e 90 26 be 74 a9 97 bb c6 bf 08 3e
       -0.31782213 -0.16265962 -0.0046283547 0.13354406
000270 e6 82 8d bd b4 68 8b 3e 80 a7 8b 3d c1 2f 2a be
       -0.069097325 0.2722832 0.068190575 -0.16619779
000280 0f a3 5b 3e be 0a 0a be 62 9c 33 be d4 97 c9 3b
       0.2144892 -0.1348066 -0.17540124 0.0061521325
000290 86 36 14 3e 4d f4 f5 bd 92 8e 8f 3e f9 7c a2 3d
       0.14473924 -0.12009487 0.2803846 0.07933993
0002a0 55 4a f7 bd e5 cb 25 3e 26 4c be bd a7 5e 22 be
       -0.120747246 0.16191061 -0.09291868 -0.1585642
0002b0 56 1e 65 bc dc d6 eb 3d eb 72 a0 bd 4b 07 86 3e
       -0.013984283 0.115155905 -0.07834419 0.2617744
0002c0 8f 35 37 3d 02 cf 1d be d1 50 2e 3e 7a fd 2c be
       0.04472881 -0.15410998 0.17023017 -0.16893569
0002d0 37 ee 27 be 48 2b f1 3a ab e3 16 3e 2c 68 dc bd
       -0.16399466 0.001839974 0.14735286 -0.10762057
0002e0 f0 c9 79 3e 70 27 94 3d 95 a5 cf bd 7e 01 31 3e
       0.2439344 0.072340846 -0.10139004 0.17285725
0002f0 99 89 69 be d6 db 45 be 64 20 85 3e 87 93 9e 3d
       -0.22806396 -0.19322142 0.26001275 0.07742982
000300 70 75 48 bd 8b b2 ad be 72 c5 e9 bd da 42 6f 3e
       -0.048940122 -0.3392528 -0.11414613 0.23365346
000310 4a b7 5f 3f 6e 00 e5 be d9 f6 76 3d e0 b5 4d bd
       0.8738905 -0.4472689 0.060294006 -0.050222278
000320 0c 7d 7a be fd 61 90 bc f0 da b9 bb 9e 5c 7d 3e
       -0.24461764 -0.01762485 -0.0056718513 0.24742362
000330 56 ec 66 be 47 fd 1a 3e 00 75 41 3f a1 fd 97 bd
       -0.22551093 0.1513568 0.7556915 -0.07421423
000340 6e ed 78 be 86 2f c4 3d 90 0b 10 bd c4 17 0a bf
       -0.24309322 0.09579377 -0.035167277 -0.53942513
000350 21 e7 a6 bc 33 23 8f 3d 30 c5 04 3f eb 47 8b 3d
       -0.020373883 0.069891356 0.51863384 0.06800827
000360 00 c3 3e be d9 be ce 3d cd a1 eb bc c4 94 62 3e
       -0.18629074 0.10094995 -0.028763676 0.22127062
000370 26 95 0f bf fe 4e 88 3c a5 61 0b 3d 8a 04 24 3f
       -0.5608696 0.016639229 0.034028668 0.64069426
000380 8b 07 b8 3e 4f cc 0f bf 65 f3 65 3e d8 59 76 bd
       0.35943255 -0.56171125 0.22456129 -0.060144275
000390 56 d3 2d 3d 61 a8 41 3e 71 25 d3 3e ab f6 9b be
       0.042437874 0.18911888 0.41239503 -0.3046163
0003a0 27 11 c2 be 38 9b a2 3f 8e 69 de be 33 81 d3 3e
       -0.3790371 1.2703619 -0.43439907 0.4130951
0003b0 d4 16 37 bd f9 06 1d 3e 04 8e 23 bd 0e 62 53 3e
       -0.044699505 0.15334691 -0.03993036 0.20642874
0003c0 cb 27 da bd 45 be 10 bd 38 80 0a 3f 71 a6 c0 be
       -0.10652121 -0.035337705 0.54101896 -0.37626985
0003d0 26 1e 58 3c b0 a8 08 be 9b 82 62 be 18 5e 8f bd
       0.013190782 -0.13345599 -0.22120135 -0.07000369
0003e0 9b d1 bd 3d 10 5d 49 3e 37 1b e0 3e 81 ab 79 3e
       0.09268495 0.19664407 0.43770763 0.2438183
0003f0 74 78 a7 be f3 d6 b7 3e 09 5c 2a bd e1 1d 34 be
       -0.32709086 0.3590618 -0.041591678 -0.17589523

linear11.bias f4 [32]
000000 65 e3 e7 bd 4e b4 bb bc c5 d4 96 3f 21 ee 89 bc
       -0.11322669 -0.022913124 1.1783682 -0.016837182
000010 41 6f 39 3f dc 78 74 3e 24 fd 59 3e a1 1b 7e 3e
       0.72435385 0.23874229 0.21287972 0.24815227
000020 4d 18 0c 3e 7d 92 80 bd 04 1e 71 bb 11 f2 d7 3e
       0.13681145 -0.062779404 -0.0036791572 0.4217687
000030 c5 4f e0 3e 00 4c a8 3d 77 69 8d be f7 31 64 3f
       0.4381086 0.08217621 -0.27619526 0.8913874
000040 34 8b cf 3d 03 9e a6 bc 94 28 e8 3e 88 f7 64 3e
       0.10133973 -0.020339018 0.4534346 0.2236005
000050 94 f7 33 bd bf 8c 4a 3e c4 40 01 be b5 16 05 be
       -0.04393728 0.19780253 -0.12622362 -0.12996943
000060 e1 8f e2 3e c5 4b dc bd aa 20 28 bf e8 d1 0b 3e
       0.44250396 -0.107566394 -0.6567484 0.13654292
000070 7e 90 9f 3e 25 9d 78 3e 03 5c 1f 3f 45 8c 4d 3c
       0.31164926 0.24278696 0.62249774 0.01254565

linear12.weight f4 [48, 32]
000000 8d 3b 29 be c1 86 8c 3c 92 58 5c bd c3 85 c3 be
       -0.16526623 0.0171541 -0.053795405 -0.3818799
000010 13 24 0c 3f d0 af 32 3f 45 5d 16 3d a2 70 43 be
       0.54742545 0.6979952 0.036710043 -0.19085935
000020 57 44 71 bc 94 2a bc bd c0 4e 51 bf d3 f4 07 3c
       -0.014725766 -0.09187809 -0.8176079 0.008298117
000030 7d 00 cc be dc 0c 5f bd 17 d1 94 bf 4c 6a 59 be
       -0.39844123 -0.054455623 -1.1626309 -0.21231955
000040 ad 2d 9c 3d f1 ba 92 be b8 70 f7 bd ef aa 2d be
       0.076258995 -0.2865825 -0.12082046 -0.16959737
000050 a5 68 19 3d 8b cb 12 be 32 e0 bd 3d f9 79 a3 3e
       0.037453312 -0.14335458 0.092712775 0.31928995
000060 01 da 46 3e 68 39 c4 3c 99 b6 30 bc a1 00 ca 3d
       0.194191 0.023953155 -0.010785722 0.09863401
000070 e6 36 2d bf 2b f8 01 3e a8 c6 e4 be d4 1a 44 3e
       -0.67661893 0.12692325 -0.44682813 0.19150859
000080 2c 89 0b be ba 8e 3f 3d 33 c3 e2 3d 92 2c 52 3e
       -0.13626546 0.046766974 0.110723875 0.20524815
000090 91 da 3e be b2 34 9a 3e 21 6c 01 3e c4 ef 16 bc
       -0.18638064 0.30118328 0.12638904 -0.009212438
0000a0 94 28 89 3e 97 3e 0e 3e 69 d7 ff 3d 8e ab 87 3d
       0.2678877 0.13891064 0.12492258 0.06624518
0000b0 4e a5 01 3e 60 1e fb 3d 49 78 33 3e 7c f4 e1 3d
       0.12660715 0.12261653 0.17526354 0.1103296
0000c0 a4 08 22 3e 7c b3 a4 be be 25 96 bd e5 53 40 be
       0.15823609 -0.32168186 -0.073314175 -0.18782003
0000d0 38 1d 07 3e e9 52 14 3e a3 f4 77 bc af 72 42 be
       0.1319474 0.14484753 -0.0151340095 -0.18989061
0000e0 4d 4c 4c 3d 6b 90 bd bd ed df b1 3a 55 d8 8a be
       0.049877454 -0.09256061 0.0013570763 -0.27118173
0000f0 e1 43 00 be 2a a7 66 3c 80 02 46 bd dd a5 e7 3d
       -0.12525894 0.014077941 -0.048342228 0.11310933
000100 10 87 29 be e0 1b 2b 3e ed b6 08 3d 69 81 c2 3e
       -0.16555429 0.16709852 0.033377577 0.37989357
000110 ba 8f 84 be b7 5d 5e 3e 83 8c 19 bf 39 1e 9c be
       -0.25890905 0.21715437 -0.5998003 -0.30491808
000120 6b ae 8d bd 65 ca 5e be 95 ca 48 3e f2 f6 ef bd
       -0.06918033 -0.21756895 0.19608529 -0.11717023
000130 62 25 88 bd 21 c7 3f bd b0 60 98 3c f0 d0 98 be
       -0.06647755 -0.046820763 0.018600792 -0.29846907
000140 5d 97 01 3e 07 3d b9 be 80 76 56 3e d7 91 db bd
       0.12655397 -0.36179373 0.20943642 -0.10721176
000150 24 36 b2 bf 33 a4 02 3e 91 5b 02 bf 27 7d 92 3e
       -1.3922772 0.1275795 -0.5092097 0.2861111
000160 ad 2a d1 3c 45 95 cb bd 4b fa 1a 3d 6b a4 12 bf
       0.025533045 -0.0994058 0.037836354 -0.5728213
000170 3e 35 4b bd f2 cc 12 3d ce b0 35 be 22 3e 84 bd
       -0.049611323 0.035839982 -0.17743227 -0.064571634
000180 b4 df 88 bd 37 45 c5 3d c5 c6 91 be 5c d3 35 be
       -0.06683293 0.09632342 -0.28471962 -0.17756408
000190 49 41 5b 3e 0e d7 b2 be 7a 8d 45 be ec c5 7e be
       0.21411623 -0.349297 -0.1929225 -0.24880189
0001a0 e1 75 ee bd 90 ec fb bd 13 5c 4a be b2 c4 71 be
       -0.11643577 -0.1230098 -0.19761686 -0.2361019
0001b0 91 64 1a 3e 5a 5b 82 3d f6 ad 47 3d 4d f0 8e bd
       0.15077426 0.0636508 0.048749886 -0.069794275
0001c0 46 b1 59 3e a2 41 05 3c d2 8d 65 3c 2d b5 6a 3e
       0.2125903 0.008133324 0.014010863 0.22920676
0001d0 32 c9 9c be 25 33 3b bf 31 36 2f bf 23 40 63 3d
       -0.3062225 -0.73124915 -0.68442065 0.055481087
0001e0 37 75 6a 3e 9e ca ac bf ba 39 c0 be 0b 7b 08 3d
       0.22896276 -1.3499334 -0.37544042 0.033320468
0001f0 75 75 dd bd 18 d3 1d 3d 1e 8c 24 3e db e4 de be
       -0.10813419 0.038531393 0.16069075 -0.43533978
000200 e7 53 17 3e b0 95 09 bd be 06 89 bd 56 c5 a8 3e
       0.147781 -0.03359002 -0.06690739 0.32963055
000210 20 15 6f bf 1d 35 c0 bd 43 8c 1f 3e 0b f8 68 3b
       -0.9339161 -0.093851306 0.1558085 0.0035548236
000220 a9 7c 6f 3d 13 fa e0 3e 75 14 b5 3e 1c 23 98 be
       0.058468495 0.4394079 0.3536717 -0.29714286
000230 33 53 9c be 5a 8c 16 be 7f 58 8b be 48 80 cb 3e
       -0.30532226 -0.14701977 -0.27215955 0.39746308
000240 59 ae e2 be 40 3e 16 3e 35 3d 55 3e 6d 9e 17 3f
       -0.44273642 0.14672184 0.2082413 0.59226114
000250 38 bb af 3d a4 a0 2c 3d da 86 9c 3e 8e 6f c4 3d
       0.08580631 0.042145386 0.30571634 0.0959159
000260 32 ac af be 15 4e a8 3d ba 49 d3 be fc 5a 24 3e
       -0.34311062 0.08218018 -0.41267186 0.16050333
000270 c8 cc 89 bd fd a5 07 be 80 fe d4 bc cc 50 90 3e
       -0.06728512 -0.13246913 -0.026000261 0.28186643
000280 3a 7d fc bd 17 a9 11 3d 46 53 3a 3c de ce 41 3d
       -0.123285726 0.035561647 0.011372393 0.047316425
000290 e1 89 a3 3e 41 d6 c7 3d fd 3e 6a bd ad b3 08 be
       0.3194113 0.097576626 -0.057188977 -0.13349791
0002a0 fe a3 37 3e 1e 98 95 bd 45 76 85 3e 80 cb 13 3d
       0.17933652 -0.07304405 0.26066795 0.036082745
0002b0 64 66 6e 3c dc d8 ed bd 32 f6 5b bc e4 44 6b 3e
       0.014550779 -0.11613628 -0.013425397 0.22975498
0002c0 05 df 04 3e a0 66 ea bd 48 21 4f be ca 89 fc 3e
       0.129757 -0.114453554 -0.2022754 0.49323875
0002d0 a1 70 71 3e 7b 73 9a 3d 8c e1 7f 3e 57 71 a4 3d
       0.23578121 0.075415574 0.24988383 0.0802943
0002e0 4a 17 66 3c aa d3 d0 3b 0c d2 19 bd 7e c4 1e 3e
       0.0140436385 0.0063728886 -0.037553832 0.15504643
0002f0 88 b2 06 bc 81 2e e1 3c 28 38 06 3e 9f a6 00 3e
       -0.008221276 0.027487995 0.1310736 0.12563561
000300 bf 46 8d 3d a9 d6 d3 bc 95 48 95 be d8 44 cf 3e
       0.06898259 -0.025859194 -0.29156938 0.4048221
000310 bc f3 96 3c fa 98 1b 3f 59 7a 46 be 74 30 84 bf
       0.018426768 0.607803 -0.1938261 -1.0327287
000320 48 fc 54 bf a3 33 10 be 72 e1 b6 3e d6 6f 06 3e
       -0.8319745 -0.14082198 0.35718876 0.131286
000330 a2 91 c6 3d 72 d2 ed bd eb 64 33 3e fa 26 87 bf
       0.09695746 -0.11612405 0.17518966 -1.055877
000340 10 cf b2 3e 64 9e 89 3e 69 5c 32 3b 70 17 0b bf
       0.349236 0.26878655 0.0027215725 -0.5433264
000350 b0 97 a9 be b4 ec 09 3e aa e1 6b bf 5b e8 19 3c
       -0.3312354 0.13469201 -0.9214121 0.009393777
000360 f5 66 3e 3d 30 ef 29 be cc ea 16 bc 8a de ae 3e
       0.046484906 -0.16595149 -0.009211253 0.3415416
000370 85 45 ca 3b 31 0a b6 bd 5e e8 09 be 6d 33 84 3d
       0.006172838 -0.088886626 -0.13467547 0.06455121
000380 d1 b8 ca bc d3 0f 23 3d 1d 3a cf 3c c2 21 ed be
       -0.02474633 0.039810013 0.025296265 -0.46314818
000390 ef a9 97 be a8 9d f7 3e 9f 07 6c 3c a0 3f d1 3c
       -0.29621837 0.4836247 0.014406114 0.025543034
0003a0 e5 d9 49 3b 1b 9b b4 bd c6 c5 bc 3e 4f 28 9c bd
       0.0030800041 -0.088186465 0.3686964 -0.07624876
0003b0 2e ee f9 3b 93 e3 e3 bd 59 cb 78 bf e0 34 e2 bb
       0.00762727 -0.11127391 -0.97185284 -0.006903276
0003c0 13 9e b0 3d 3c 7a 0b bd 55 02 dd bd 76 fb 87 bd
       0.086239 -0.03405212 -0.107914604 -0.06639759
0003d0 36 f6 80 3e 15 4a 46 bf 23 27 5b bc 7b 6e 6f 3e
       0.25187844 -0.7745679 -0.01337603 0.23381989
0003e0 97 41 12 bb e6 64 2f 3c 21 fa f9 be f0 86 be 3d
       -0.0022316927 0.010705208 -0.48823646 0.09303081
0003f0 79 f1 b6 3d 04 bf e3 3d 5c 34 61 bd 8c 48 25 bd
       0.08932776 0.11120418 -0.054981574 -0.04035239

linear12.bias f4 [48]
000000 9f b6 1d 3d f1 7c 74 3e 2f fe 93 be ed 81 82 bd
       0.03850424 0.23875786 -0.28904864 -0.063724376
000010 c3 7d bc be ea a1 c8 3f b7 bd 1c bf 4e 41 b2 3f
       -0.368147 1.5674412 -0.6122698 1.392618
000020 31 15 46 3e 1d ea 31 bf f9 82 c0 be 05 5d ba 3e
       0.19344021 -0.69497854 -0.37599924 0.36399093
000030 02 ae 0f 40 f1 e8 13 40 0c 9b d3 3f ab 03 50 3f
       2.2449956 2.3110926 1.6531692 0.81255597
000040 53 b2 06 3f 6f a0 54 3e e7 66 f5 3c 82 61 09 bf
       0.5261585 0.20764326 0.029956294 -0.5366441
000050 54 58 6b 3d 2b 61 34 be 8f f1 d8 3e 6b c6 5d 3e
       0.057457283 -0.17615192 0.42371795 0.21657722
000060 30 f2 c9 be f4 33 2a 3e 8d 48 c7 be 92 dd f6 3f
       -0.39442587 0.16621381 -0.3892254 1.9286368
000070 1c bc 03 be a9 67 68 3e 3d ff b0 3e f7 05 a8 bb
       -0.12864727 0.22695793 0.3456973 -0.005127664
000080 97 f0 1b 40 38 9e 18 bf d3 bb ba 3f 27 67 44 3d
       2.4365594 -0.5961642 1.4588569 0.047949936
000090 44 58 b5 be d0 e5 19 3f 05 bc 9b 3f 04 a6 2d 3f
       -0.35418904 0.6011629 1.2166754 0.67831445
0000a0 3c 63 e9 be cf 9a 00 40 5a 25 4e bf 72 ef 19 bf
       -0.45583522 2.0094488 -0.80525744 -0.6013099
0000b0 c5 aa b8 3f 41 8d d4 3a be 80 7e bb d9 89 e2 3f
       1.4427115 0.0016216413 -0.003883406 1.7698318

linear13.weight f4 [59, 48]
000000 9d ab 0f be 95 d6 47 be 34 05 10 bf c4 10 5f 3d
       -0.14030309 -0.1951545 -0.5625794 0.05445935
000010 e3 47 8f be 0c 98 10 bf d9 49 1a bd e3 56 16 be
       -0.27984533 -0.56482005 -0.037668083 -0.14681582
000020 80 4a ea bc ae 19 ad 3d 70 de b5 bd 98 80 6b be
       -0.028599977 0.08452164 -0.08880317 -0.22998273
000030 56 a5 2b c0 f2 f2 d7 bf 0e e0 00 c0 a8 64 03 bf
       -2.6819663 -1.6871016 -2.0136752 -0.51325464
000040 42 8d 34 bd ff 7b dd bd b2 e1 91 bd cc f3 1f bd
       -0.044080026 -0.10814666 -0.07123126 -0.039050862
000050 94 6a 3e be ce e9 65 be da c4 2c be 14 28 39 bd
       -0.18595344 -0.2245247 -0.16871968 -0.045204237
000060 6c 35 cb be 96 d8 45 bd f3 fb 4c 3d 56 26 8a be
       -0.39689195 -0.048302256 0.050044965 -0.26982373
000070 24 6f 47 bd 89 53 24 bf df c1 28 be 6d fa 31 be
       -0.048689976 -0.64189965 -0.16480206 -0.17380686
000080 0b b7 31 bf 10 60 0c bd 4d f8 16 bf c3 d6 6f be
       -0.69419926 -0.0342713 -0.58972627 -0.23421769
000090 8f 5c 1b bd d3 bb 02 bc e4 d5 a9 bd ac 43 3e be
       -0.037930068 -0.007979351 -0.082927495 -0.18580502
0000a0 8a 49 f0 be 71 98 c1 bd 57 48 bf 3d 08 a4 55 be
       -0.46931106 -0.09452904 0.093399696 -0.20863354
0000b0 58 52 6e c0 c1 ea d3 bd cb e8 9e bd 7a d7 0e be
       -3.7237759 -0.1034751 -0.077592455 -0.13949385
0000c0 90 f3 16 3e 0f 76 08 3d b5 de 99 3d 52 c3 f8 3d
       0.14741349 0.033315714 0.07513181 0.121466294
0000d0 d2 b3 58 bd cd 01 80 bd 54 54 ad be c7 4d c3 bb
       -0.052905865 -0.062503435 -0.338534 -0.0059601995
0000e0 c6 66 bc 3d 0b a0 3a 3d e5 10 a7 3c ca 2d dc bc
       0.0919929 0.045562785 0.020393798 -0.026877303
0000f0 19 83 76 be 52 e4 81 be c6 d2 94 bd 42 be a2 3c
       -0.24073447 -0.25369507 -0.07266764 0.019866113
000100 c5 87 4f 3e 43 15 65 be f2 11 0a be 92 90 df bd
       0.20266636 -0.22371392 -0.13483408 -0.109162465
000110 6f 82 71 be 9c 8c 73 3d 82 57 81 be ad db 60 3e
       -0.23584913 0.059460267 -0.25262076 0.219588
000120 d1 7e d6 bd 46 c4 d4 bd 8c 69 c5 3e c2 74 eb bd
       -0.10473407 -0.10388999 0.38557088 -0.11496879
000130 9e 0c 64 3e a3 91 de be 6e 85 30 3d 98 cd 91 bd
       0.22270438 -0.43470487 0.043096 -0.07119292
000140 8b b6 b1 be 42 12 64 be 42 a9 65 3c 90 32 01 be
       -0.34709582 -0.2227259 0.014017405 -0.12616944
000150 8e bb b3 3c 22 51 f1 bd 76 e7 40 3e 33 98 ea 3c
       0.021940019 -0.11783053 0.18838295 0.028637027
000160 2b 3f 08 be 7c 5f 8f bd d2 ee e0 3d 44 71 23 be
       -0.13305347 -0.07000634 0.10983051 -0.15961176
000170 a2 2d 25 bd 3d 9c 1a be 52 6a c6 3c 5c fa d1 bd
       -0.040326722 -0.15098663 0.02422062 -0.102528304
000180 ab 89 a2 3d 2a f7 06 3e 59 ad 54 3e 48 68 ad 3d
       0.07936414 0.13180223 0.20769252 0.08467156
000190 09 dc 5d be 5d 01 8c bc 4e a5 0f bd c8 41 7c be
       -0.21665968 -0.017090494 -0.035069756 -0.24634469
0001a0 be b8 d7 3e fc 33 a9 3c c8 b4 cd 3e 26 23 77 3d
       0.42133135 0.02065467 0.40176988 0.060336255
0001b0 cd 46 84 be 09 e3 a7 be 01 9f 07 be 8d dd 6d be
       -0.25835267 -0.32790402 -0.13244249 -0.23229046
0001c0 98 4d f9 bc 71 df d8 3d cb 87 67 3d 59 0c f2 bd
       -0.030432507 0.10589493 0.056525987 -0.118187614
0001d0 0e 05 38 be b2 42 91 bc 70 ae 87 be be 9e 01 bd
       -0.17970678 -0.017731998 -0.26500273 -0.03164553
0001e0 34 0c 27 be 82 85 0f be 4e 1b 1b be 57 d6 41 be
       -0.16313249 -0.14015773 -0.15147135 -0.1892942
0001f0 32 22 a2 bd 21 c8 a6 3e e5 71 0b 3e 2a fc d8 bd
       -0.079166785 0.3257456 0.13617666 -0.105949715
000200 2c b1 ad bd cd 4b 14 bf e3 8b 81 bd e8 d1 a4 3d
       -0.084810585 -0.5792816 -0.063255094 0.08047849
000210 0a 5c cc be 70 4a e1 bb ea 0a 92 3d 50 ac 62 bd
       -0.3991397 -0.0068753287 0.07130988 -0.05534011
000220 be 32 0c 3e 8d 2e b1 3d 63 20 47 be 71 af 91 3d
       0.13691232 0.08651457 -0.19445948 0.07113541
000230 7d 6c 08 be 8b 99 1d bc 7e d4 f9 3d 33 ea 30 be
       -0.13322635 -0.009619127 0.12198733 -0.1727684
000240 28 31 a2 3d 47 54 bd 3d e3 33 bc 3d 3c bb 78 bc
       0.07919532 0.0924459 0.09189584 -0.015181359
000250 01 05 5b 3d 11 82 d1 bd 9a f9 ad bd 95 fe 08 be
       0.05347157 -0.10229886 -0.08494873 -0.13378365
000260 1a b4 f8 3e 9f ef 43 bc be af 1a 3e 36 4d a2 3b
       0.48574907 -0.011958986 0.15106103 0.004953052
000270 12 5f 26 be c7 d2 5d be 0f 76 98 bd 00 2d e8 3b
       -0.16247204 -0.21662436 -0.07444393 0.0070854425
000280 21 5a 95 3d 9b ce 1e 3e 8a bd 7e 3e bc 7f b1 3d
       0.07292581 0.15508501 0.24876991 0.086669415
000290 9b 35 b4 bd 9d bd 35 3c ce 19 1f be fe 1f 12 3b
       -0.08799287 0.011092571 -0.15537187 0.00222969
0002a0 a4 1f aa 3c 99 cd 3e bd 95 d5 44 be e5 31 d4 3d
       0.02076704 -0.046582792 -0.192221 0.10361079
0002b0 ca 44 9f 3d c1 37 f8 3d da a0 d5 ba 33 cb e3 bd
       0.07776792 0.12120009 -0.0016298548 -0.111227416
0002c0 39 84 31 be 65 e7 19 be af 6e a0 bd 5c 0e 3e be
       -0.17335595 -0.15029676 -0.07833611 -0.18560165
0002d0 db a0 31 be 43 fa bb bd 45 eb 9c 3b de 27 45 3d
       -0.17346518 -0.09178593 0.0047887885 0.048133723
0002e0 73 61 c4 3d 30 60 3e 3d 01 fc b1 3b 05 bb 3b bd
       0.095888995 0.04647845 0.0054316525 -0.045832653
0002f0 68 c6 fe bd 96 2b 45 bd c4 d0 5b be ca ee c6 be
       -0.12440187 -0.04813727 -0.21466357 -0.38854057
000300 bb 44 8a be 22 93 56 3d b5 ec 85 bd a6 3c 2d bc
       -0.27005562 0.05238641 -0.06539289 -0.010573542
000310 69 36 b1 3d 54 0e 64 be e7 f7 ac 3d 4b f7 9d 3d
       0.08652956 -0.22271091 0.08445721 0.07713183
000320 f0 5d 58 3e 9f 89 69 3e 67 8c 94 bc e2 37 ab 3d
       0.21129584 0.22806405 -0.018133355 0.08360268
000330 ca 50 48 bd 0b df 19 be 30 1d 04 be cc d5 66 3d
       -0.04890517 -0.1502649 -0.12901759 0.056356236
000340 5a ed 8d bd ef 93 f6 be 92 2d 45 3e c5 4d 44 3d
       -0.06930037 -0.4815974 0.19255665 0.04792573
000350 b3 0b 05 3e 9e 0b 9f 3d 4a 7f 24 be 27 09 58 bc
       0.12992744 0.07765888 -0.16064182 -0.013185776
000360 ba f7 3c 3e a8 36 99 3c 64 fd 8d be ef d2 94 be
       0.18453875 0.01870282 -0.27732384 -0.2906718
000370 42 23 87 3d 13 d1 60 be 14 4e e1 ba 36 39 ba bd
       0.06598522 -0.21954755 -0.0017189407 -0.09092943
000380 a6 5f bb bc 6f 0b a8 bc fe a8 f4 bd 91 9b c1 bb
       -0.022872757 -0.020513264 -0.11946295 -0.0059084375
000390 12 b3 42 c0 cd 59 16 3e 0d 43 24 be 24 89 16 bb
       -3.0421796 0.14682694 -0.16041203 -0.0022969926
0003a0 58 83 91 3d f4 34 bf 3c 0f 1b 1f 3e 8a 11 ff bd
       0.0710513 0.02334068 0.15537666 -0.12454517
0003b0 a5 46 6a be b9 76 17 bc 8a 82 ed bd e3 30 13 be
       -0.22878511 -0.009244614 -0.11597164 -0.14374118
0003c0 ba c7 7e bc 96 b1 ba 3d 20 2f 29 3d c3 0b 3b 3e
       -0.015550548 0.09115903 0.041304708 0.18266205
0003d0 2e f5 b7 bc 7c be 59 bb 77 a7 7d 3d 25 e7 8c 3c
       -0.022455778 -0.003322511 0.061927285 0.017200062
0003e0 16 e2 96 bc c0 cd 35 bd db ef e7 3d 2b 19 e0 3d
       -0.018418353 -0.04438567 0.11325046 0.109423004
0003f0 bd 2a 73 be 09 ed 9b be 84 0e 1a be 33 30 9e bd
       -0.23746772 -0.3045428 -0.150446 -0.07724037

linear13.bias f4 [59]
000000 b1 2a 3f bf f0 68 f0 be e6 52 c0 be a8 8e 0c bf
       -0.74674517 -0.4695506 -0.37563246 -0.54905176
000010 10 8e f5 be e3 fb 17 bf 75 d2 65 be 94 0a 2d bf
       -0.47959948 -0.59368724 -0.22443564 -0.67594266
000020 54 05 23 bf 93 e4 1c bf ff 7b 27 bf 5a 76 e6 be
       -0.63680005 -0.61286277 -0.6542358 -0.4501217
000030 41 b2 e4 bd ab c2 58 bf c3 eb b9 be 90 c1 fd be
       -0.11166812 -0.8467204 -0.36312684 -0.4956174
000040 5f bf 36 bf 76 49 ab be a6 d3 66 bf 4e 9d 4c bf
       -0.7138576 -0.33454484 -0.901667 -0.7992753
000050 e5 06 cc be 57 59 6b bf 5b 3c 12 bf 74 f4 52 be
       -0.3984901 -0.91933197 -0.57123345 -0.20601064
000060 32 36 05 bf 38 8e 1d bf bc 69 e4 be b2 96 44 be
       -0.5203582 -0.61545134 -0.4461192 -0.1919811
000070 e5 bb 8d be 38 88 8b be 66 e4 2b bf 93 ee 09 bf
       -0.27682415 -0.27252364 -0.67145383 -0.5387966
000080 6d 6c 2f bf 8f 39 03 bf 6d a6 90 be c1 e6 6a bf
       -0.6852482 -0.512597 -0.28251973 -0.9175835
000090 f8 1b 72 be 53 8c ec be e2 f1 3c be 78 88 0c bf
       -0.23643482 -0.4620081 -0.18451646 -0.54895735
0000a0 b8 8b cb be 53 98 e8 be 71 ea b7 be c5 da 1e bf
       -0.39755034 -0.45428714 -0.35921052 -0.62052566
0000b0 82 4c 10 bf a5 79 29 bf e5 4c 99 be 99 0c 06 bf
       -0.5636674 -0.6620124 -0.29941478 -0.5236297
0000c0 a1 9c e6 be f2 c3 23 bf 0b d9 82 be 39 d7 05 bf
       -0.45041373 -0.63970864 -0.25556216 -0.5228153
0000d0 ef 20 22 bf 6c fe 01 bf 42 94 3b be 62 cc 4f bf
       -0.633315 -0.5077884 -0.18318275 -0.8117124
0000e0 df 8c a3 bd 27 70 ee be 7f 33 8c be
       -0.079858534 -0.4656994 -0.27383038

linear1.weight f4 [16, 63]
000000 c8 46 76 3d e8 80 12 bc 01 e4 ec bd 10 d1 92 3c
       0.060126096 -0.008941866 -0.11566926 0.017921954
000010 a0 86 97 bc d0 c0 b5 3c 3e 9e 1d bd 62 09 9b 3d
       -0.018496811 0.022186667 -0.03848099 0.07570149
000020 92 4a b0 3d a2 a3 0c bd 02 66 e9 3d 3a a2 f6 3d
       0.08607973 -0.03433574 0.113964096 0.12042661
000030 a5 5b dd bd f0 62 0c bc d8 d6 ad 3c 0c 04 47 3d
       -0.108084954 -0.00856851 0.02122061 0.048587844
000040 44 21 1d bd 5c 84 a5 bd 28 ce 94 bd d8 9a b9 bd
       -0.038361803 -0.08081886 -0.07265884 -0.09062737
000050 e6 9e 6a bd 40 f3 a5 ba 72 e2 f1 3d 20 1f 22 bd
       -0.057280444 -0.0012660995 0.11810769 -0.039580464
000060 9c c9 d7 3d 70 83 1d bd f8 43 e9 3d b8 bc cb 3d
       0.10536501 -0.038455427 0.11389917 0.099481046
000070 90 81 f1 bb 06 db 8d bd 00 80 a1 3c ea a7 a6 bd
       -0.0073701814 -0.06926541 0.019714355 -0.08137496
000080 ab 75 ca bd 85 d1 80 bd 5c 90 59 3d e0 5e 13 3c
       -0.09885725 -0.06289963 0.053116187 0.008994788
000090 c4 6d 2d 3d a4 15 59 3d 1c 31 4d 3d fe 9f 75 bd
       0.04234101 0.052999154 0.050095662 -0.059967034
0000a0 da b4 9a 3d 54 3f 9e bd cc 65 1d 3d d8 cb ad 3c
       0.07554026 -0.07726923 0.03842716 0.021215364
0000b0 a8 50 60 bc 78 44 e2 3d 50 01 11 3d 60 bc 8f 3d
       -0.013691105 0.11048216 0.035401642 0.070183516
0000c0 9c a2 c5 3d f4 f6 a6 bd a4 5c 60 3d b0 71 5c 3d
       0.09650156 -0.08152571 0.05477585 0.05381936
0000d0 0e 1c d7 3d 0e 72 75 bd 84 a0 5c 3d 30 2f 8c bc
       0.10503398 -0.059923224 0.053864017 -0.017112345
0000e0 0a dd d5 3d af 79 00 be 3e 8a 9a 3d e0 42 00 3c
       0.104425505 -0.12546419 0.07545899 0.007828444
0000f0 0c 69 fa bc f0 12 4d bd 3c 68 6e 3d 34 2d bd 3d
       -0.030567668 -0.05006689 0.058204874 0.092371374
000100 00 34 09 b9 18 c4 83 bd 64 6c af 3d 76 ca cd 3d
       -0.0001308471 -0.06433886 0.08565596 0.10048382
000110 96 05 2c bd c0 11 bb bb 3f 27 87 bd 4c 50 a9 bd
       -0.041997515 -0.005708903 -0.065992825 -0.082672685
000120 20 68 a5 3d 12 90 cf 3d ce 1b 8e 3d 44 eb 9f bd
       0.08076501 0.10134901 0.06938897 -0.07808545
000130 c0 22 a1 3b b5 d6 83 bd 06 f1 75 bd 08 89 eb 3c
       0.0049174726 -0.064374365 -0.06004431 0.028751865
000140 c2 63 a2 bd b0 82 07 3c de 95 d5 bd 34 db a8 3d
       -0.079291835 0.008270904 -0.104289755 0.08244935
000150 f4 93 6a 3d de b0 bd 3d e0 76 e9 3b 50 0c 88 bd
       0.057270005 0.0926225 0.0071247667 -0.066429734
000160 42 f2 ee bd a8 28 2c bd b5 dc e9 bd b0 58 95 bd
       -0.11667301 -0.04203096 -0.1141905 -0.072923064
000170 82 82 eb bd 00 2e d5 b9 f4 60 d2 bd 40 1e 48 bb
       -0.11499502 -0.000406608 -0.102723986 -0.0030535609
000180 66 73 dd 3d ca 80 ac 3d 10 5f ba bd 96 80 f6 bd
       0.10813026 0.08423002 -0.09100163 -0.120362446
000190 02 db 84 bd 3c a5 8a 3d b0 c2 ac 3d 28 28 f4 bd
       -0.06487085 0.06769797 0.08435571 -0.11921722
0001a0 4c 7b cb 3d 02 45 d0 3d 20 5a 72 bc b0 0a 50 3c
       0.099356264 0.10169412 -0.014791995 0.012697861
0001b0 84 b5 10 3d e4 9d ab 3d 28 94 76 3d 24 78 d9 bd
       0.035329357 0.083797246 0.060199887 -0.10618618
0001c0 04 c8 a9 3d 90 d2 ba bd 00 c5 b2 3c 7c 65 90 bc
       0.08290103 -0.09122193 0.021822453 -0.017626517
0001d0 18 5d 21 bd a8 15 4c bc 41 a9 d5 bd 42 01 f6 bd
       -0.03939542 -0.012456335 -0.10432673 -0.12011959
0001e0 41 6f ea bd 16 08 ce 3d 80 1d ce 3b 68 3b 58 bc
       -0.11447001 0.10060136 0.006290138 -0.013197757
0001f0 c0 bd cb 3d 9a 03 cf 3d 10 84 cd bc 60 73 29 bd
       0.09948301 0.10108109 -0.025087386 -0.041369796
000200 68 ed ff 3d 00 e0 da 3c 96 41 28 bd b0 d7 34 3d
       0.124964535 0.02671814 -0.041078173 0.044151008
000210 d2 92 26 bd 90 73 a5 bb 68 07 bb bd f0 f6 d7 3d
       -0.040667363 -0.0050491765 -0.09132272 0.105451465
000220 70 98 27 3c cc 28 d8 bc 88 70 c5 3d 38 c8 9a bc
       0.010229215 -0.026386641 0.09640604 -0.0188943
000230 92 73 75 bd d6 c8 7e bd d7 11 eb bd 40 03 4d bc
       -0.05992467 -0.06220325 -0.11478012 -0.012512982
000240 26 cc d5 3d 94 db 35 3d bc 5e 90 3d 2c e5 e1 3d
       0.10439329 0.04439886 0.07049319 0.11030039
000250 56 8c 43 bd b8 e8 6b 3d cc b0 00 3e 6e 68 94 3d
       -0.047741257 0.057594985 0.12567443 0.07246481
000260 dc 83 4c bd ca 1f a2 bd f0 73 2c 3c e0 a1 f4 bc
       -0.04993044 -0.079162195 0.0105256885 -0.029862344
000270 b8 cb 2f bc ac 7b 5e 3d cc ba 6f 3d fe 02 ea bd
       -0.010729723 0.05431716 0.058527753 -0.11426352
000280 20 a2 1d bc 32 72 75 bd 2a 10 d3 bd 9b 7a ba bd
       -0.009621173 -0.05992336 -0.103058174 -0.091054164
000290 98 83 ce 3c b4 3e fe 3d 78 68 f6 3c 40 af a4 3c
       0.025209233 0.124143034 0.030079111 0.020103097
0002a0 08 d1 3b bd 76 f7 55 bd c6 48 8b 3d 20 73 5c 3c
       -0.045853645 -0.05223795 0.0680099 0.013455182
0002b0 b3 12 f0 bd b0 53 cc 3d 18 be 32 3d 5c 6f 54 3d
       -0.117223166 0.099768996 0.04363832 0.051864013
0002c0 bc 24 a6 bd 0a 3b 00 3e 68 b0 95 bc 46 1b 74 bd
       -0.08112475 0.12522522 -0.018272594 -0.059596322
0002d0 9e 68 07 bd 40 5a f6 ba 20 64 0b bb a6 46 dd 3d
       -0.033058755 -0.0018795207 -0.0021269396 0.10804491
0002e0 40 c1 3c 3b 72 f1 af 3d 9c ab fc 3d 54 21 df 3d
       0.002880171 0.08590974 0.123374194 0.10895029
0002f0 6c da 04 3d 56 3a f0 3d 98 93 d1 3c ee 72 8f 3d
       0.032434866 0.11729877 0.025583073 0.07004343
000300 9c d9 ee bd 89 39 e6 bd b4 2e 84 bd ce e9 d4 3d
       -0.116625994 -0.11241443 -0.064542204 0.10396157
000310 06 b7 bd 3d 00 85 7d 3d ef e7 ee bd 4c 42 f1 3d
       0.092634246 0.061894417 -0.116653316 0.11780223
000320 10 72 b1 bd 4c a5 ef bc 34 66 f5 3d 06 9d 72 bd
       -0.08664334 -0.029253624 0.11982384 -0.05923178
000330 fc e8 1b bd 80 50 bb 3d 44 3e bd 3d 81 02 fe bd
       -0.038063988 0.091462135 0.09240392 -0.12402821
000340 c8 6c 36 bc 65 4d ff bd 28 12 37 3d df 3f bf bd
       -0.011134334 -0.12465934 0.04469505 -0.09338354
000350 38 2c f7 3c 2a d6 0b bd 80 47 1d bd 44 be 93 bd
       0.030172452 -0.03413979 -0.038398266 -0.07214025
000360 8c 95 f5 3d 2c 53 73 3d b0 ed 22 bc 70 b7 39 3c
       0.119914144 0.05940549 -0.009944364 0.011335239
000370 a8 3f a8 3c 0c 1a 00 be 90 0f d6 bd 62 cc 00 3e
       0.020538166 -0.12509936 -0.10452187 0.12577966
000380 58 a4 fe 3d e0 53 f7 bb 60 16 96 3b 52 da e9 3d
       0.1243369 -0.0075478405 0.004580304 0.114185944
000390 f4 87 a6 3d 20 6f e7 3b 68 3b ab 3c 40 8f b6 3b
       0.081314 0.0070628077 0.02090235 0.005571276
0003a0 d4 a2 55 3d 4c da e5 3d e4 c2 86 3d 66 f8 f2 3d
       0.052157238 0.112232774 0.06580141 0.118637845
0003b0 54 6e 61 3d 9e 64 76 bd ea e5 e4 3d 86 98 b6 3d
       0.055036858 -0.06015455 0.11176665 0.0891581
0003c0 7d 40 e8 bd 82 3e 21 bd 98 a4 8b 3d a2 fe a3 3d
       -0.11340425 -0.039366253 0.06818503 0.08007552
0003d0 82 49 32 bd 3c dd eb bd e4 a9 fc 3d 49 df bd bd
       -0.043527134 -0.115168065 0.123370916 -0.09271104
0003e0 f8 da c8 3c 28 a1 c8 bd 18 96 b3 3d 52 5b ef 3d
       0.024518475 -0.09796363 0.087688625 0.1168734
0003f0 f4 13 5a bd 00 f9 fc 3a 30 74 12 3c 4c 81 53 3d
       -0.053241685 0.0019300282 0.008938834 0.05163698

linear1.bias f4 [16]
000000 7c a3 46 bd 93 5f c5 bd cc e1 4b 3d bc b9 6f 3d
       -0.048495755 -0.0963737 0.049775884 0.05852674
000010 d0 e5 ec 3d d0 4a c4 bc 9a 60 9e 3d 6a 8b a1 3d
       0.11567271 -0.023961455 0.07733269 0.07887919
000020 78 0d 23 bd b7 d6 8f bd 48 22 c3 3d e0 53 43 bc
       -0.039807767 -0.070233755 0.09528023 -0.011921853
000030 ad 3e f1 bd f4 dc 5a 3d 90 76 aa 3d b3 6c be bd
       -0.117795326 0.053433374 0.08323395 -0.092980765

linear2.weight f4 [59, 16]
000000 58 0e 36 bd a8 e7 1c bd 08 99 39 3d 6c 77 48 be
       -0.044447273 -0.038306862 0.045311958 -0.19576806
000010 8c 95 50 be c0 40 25 3e 70 33 e3 bc 56 08 02 3e
       -0.20369548 0.16137981 -0.027734488 0.12698492
000020 70 52 fc 3d 08 6d be bd e0 67 85 3c 08 7f 48 3d
       0.12320411 -0.0929814 0.016284883 0.04894927
000030 e6 0a 00 be 28 df 56 3d 9c d5 28 be 98 50 1a 3e
       -0.12504157 0.052458912 -0.16487736 0.15069807
000040 10 86 b9 bd 58 b9 78 3d 82 73 4d be 9c b8 89 3d
       -0.090587735 0.060723633 -0.20063594 0.067246646
000050 90 3b d2 3c 20 17 52 3c a0 9e 2d 3c b8 36 2e 3d
       0.025663167 0.012822896 0.010596901 0.042532653
000060 1e 77 75 be 94 1c 70 3e 5c f9 9f 3d 40 d0 3a bc
       -0.23971221 0.23448402 0.078112334 -0.01140219
000070 30 12 26 3d 14 f3 48 be 20 f7 7c 3c 80 12 ea bb
       0.04054469 -0.19623977 0.015439779 -0.0071433187
000080 5e 62 17 be d0 dd 78 3d 10 11 d8 bc 78 dc 1d 3d
       -0.14783618 0.060758412 -0.026375324 0.038540334
000090 d4 75 22 be 9a bc 26 3e c4 3e 1d be 62 4a 18 3e
       -0.1586526 0.16282883 -0.15355974 0.14872125
0000a0 9e 1a 3f be c4 b8 9c 3d 68 90 35 3e 44 ef 52 3e
       -0.18662497 0.07652429 0.17730868 0.20599085
0000b0 4c 4f 51 be 90 ee 30 bd d8 93 66 3d 4e a4 03 3e
       -0.20440406 -0.04319626 0.05629334 0.12855646
0000c0 78 84 aa 3d ec 30 92 bd 54 9d 3a 3e c4 6c 21 be
       0.08326048 -0.07138237 0.18224078 -0.15764147
0000d0 9c ee 01 be dc 3c a4 bd 70 f7 46 3e 6c 9b a8 bd
       -0.12688679 -0.080194205 0.19430327 -0.08232769
0000e0 e0 29 03 3c b0 58 38 be 62 cd 6a 3e ce 4a 52 3e
       0.008005589 -0.18002582 0.2292991 0.20536348
0000f0 80 63 1c 3c 28 33 0a bd d8 e4 22 3e 00 63 bd 3c
       0.009545207 -0.033740193 0.1590761 0.023118496
000100 fc 16 82 3d 60 73 16 3c 1c 99 02 3e 48 63 bb 3d
       0.0635204 0.009182781 0.12753719 0.09149796
000110 fc ab 0f 3e 8c 2f 5b be e2 17 14 be 0c 00 d2 bd
       0.1403045 -0.21404856 -0.14462236 -0.10253915
000120 ac 5a c4 3d fc 5c da 3d 52 35 49 3e b6 ea 01 3e
       0.09587607 0.106622666 0.19649246 0.12687191
000130 00 44 db 39 ec 0b 6e 3e 60 4a 9d 3c d0 28 1f be
       0.000418216 0.23246735 0.019200504 -0.15542912
000140 a4 43 e6 3d 18 ad 4c bd 98 d2 6d bd 22 56 26 3e
       0.1124337 -0.049969763 -0.058062166 0.16243795
000150 88 72 69 3e 70 ac 87 bc b0 18 b8 3d 60 88 d1 3c
       0.22797596 -0.016561717 0.08989084 0.025577724
000160 f8 44 87 bd 60 84 35 bd 80 2e f5 3b 6c 7c 2d 3e
       -0.066049516 -0.044315696 0.00748235 0.16941994
000170 ce 85 1b be 3c 6c b7 3d d0 be 0c bd 5c 6c d1 3d
       -0.15187761 0.08956191 -0.03436166 0.10225746
000180 74 96 75 be e6 a8 39 be 58 b4 3b be 02 ba 3d 3e
       -0.23983175 -0.18130836 -0.18330514 0.18527988
000190 8a 8d 64 be 18 28 29 3e 42 9f 4d 3e e2 8b 0e 3e
       -0.22319618 0.16519201 0.20080283 0.13920549
0001a0 40 3a f4 bd a0 73 6c 3d 18 48 47 3d f8 e4 ba bd
       -0.11925173 0.057727456 0.04865274 -0.091257036
0001b0 c0 f1 0f 3d b8 19 34 3e 4a 44 7e 3e 10 39 4d 3e
       0.03514266 0.17587936 0.24830738 0.20041299
0001c0 dc 57 fb 3d 6c 8a ab 3d 1e c0 12 3e 8c 6a 3b 3e
       0.12272617 0.08376011 0.143311 0.18302363
0001d0 aa e8 0b be 00 b4 00 3c 9a ea 75 be 50 7d ae bd
       -0.13662973 0.007855415 -0.24015275 -0.08519995
0001e0 5e 5d 46 3e c4 ff 88 3d 92 50 70 be 50 94 99 bc
       0.19371554 0.066894084 -0.23468235 -0.018747479
0001f0 54 b9 bb bd 48 16 d0 bd d8 f8 cc bd c0 c2 f9 bd
       -0.09166208 -0.101605 -0.10008401 -0.12195349
000200 08 70 75 3d 14 3a 83 3d 64 39 f6 3d 46 2d 77 3e
       0.059921294 0.06407562 0.12022665 0.24138364
000210 64 ec 9d 3d a0 7d 98 3c 00 59 fc bc 48 02 5c bd
       0.077111036 0.01861459 -0.030804157 -0.053713113
000220 88 e1 4a 3d 70 41 28 3e fc 00 dc bd 50 73 56 3e
       0.04953149 0.16431212 -0.10742375 0.20942426
000230 34 3d b8 bd 52 48 6f 3e 1c 9c ae bd 3c a3 fa 3d
       -0.089960486 0.23367432 -0.08525869 0.12238166
000240 fe 5f 77 3e 98 d8 37 3e 86 35 33 be 00 06 00 be
       0.24157712 0.17953718 -0.17500886 -0.12502289
000250 0e 0a 30 be 44 b9 8e bd 5c 15 68 3e 6e 1f 61 3e
       -0.17191336 -0.0696893 0.22664398 0.21984646
000260 24 9d 53 be 00 94 6c bb 48 bc 56 bd 38 28 23 3d
       -0.20665413 -0.0036098957 -0.052425653 0.039833277
000270 20 5b 53 bc a8 d5 55 3d 94 6a 40 be 74 2c cc 3d
       -0.012900144 0.05220571 -0.18790656 0.09969416
000280 b4 36 fc 3d e4 53 79 be 34 31 25 be 94 7e 08 be
       0.12315121 -0.24348408 -0.16132051 -0.13329536
000290 a8 1a b9 bd ca 24 22 3e 18 a8 5c bd f8 3b c0 bd
       -0.090382874 0.15834346 -0.053871244 -0.09386438
0002a0 18 db 71 3e 60 d3 92 3c 68 f1 45 bd 20 8a dd 3c
       0.23618734 0.017923057 -0.048325926 0.027043402
0002b0 d0 9b e6 3d 7a 15 26 3e e6 af 5d 3e 7a 6a 3c be
       0.112601876 0.1621913 0.21649131 -0.18399993
0002c0 14 e0 65 be 50 73 45 3e cc b5 6a be 70 3e 61 3d
       -0.2244876 0.1928227 -0.22920913 0.054991186
0002d0 3e 0a 37 3e 9c 70 bd bd c8 07 b8 3d 28 ae 0e bd
       0.17875001 -0.09249994 0.08985859 -0.034834057
0002e0 6c e3 74 be e0 0f a5 3c 54 5a d2 bd 60 47 3c bc
       -0.2391488 0.020149171 -0.10271135 -0.0114916265
0002f0 c0 72 6f bc 76 bc 21 be f0 93 33 bd 52 d7 37 3e
       -0.014614761 -0.15794548 -0.043842256 0.17953232
000300 94 16 0b 3e 00 40 df b9 66 07 19 3e 9c 4a 48 be
       0.13582832 -0.00042581558 0.14944229 -0.19559711
000310 c8 3f 24 be 24 94 5b be 20 c1 7c 3d f4 bd 55 3e
       -0.16039956 -0.2144323 0.061707616 0.20873243
000320 f0 b8 0f bd ac 21 47 3e a0 1e 0b 3e 10 31 ee bc
       -0.03508848 0.19446439 0.13585901 -0.02907613
000330 ec e7 d8 bd 70 78 57 3d 7a d4 42 be 02 10 69 be
       -0.105911106 0.052605093 -0.19026366 -0.22760013
000340 f8 3b 87 3d c8 8b 4c 3e ac 9c bb 3d ea dd 73 be
       0.06603235 0.19975197 0.09160742 -0.23815122
000350 30 fb cb 3d 00 c7 c4 bc dc 3d fb 3d 50 37 78 be
       0.099600196 -0.024020672 0.12267658 -0.2423985
000360 78 6b 8e bd 80 48 a9 bd 52 c9 3b 3e 18 dd 7a be
       -0.06954092 -0.082657814 0.18338516 -0.24498403
000370 78 8f af 3d f0 b1 d1 3c 30 f3 ee 3c 86 5f 7b 3e
       0.08572286 0.025597543 0.029168695 0.24548158
000380 20 a5 52 bd 70 9d 21 be 18 d5 24 bd cc da 58 3e
       -0.051427007 -0.15782714 -0.040242285 0.21177214
000390 44 f8 58 3e 4e af 79 3e f4 5d b4 3d 80 74 07 bd
       0.21188456 0.2438328 0.08806983 -0.033070087
0003a0 aa c2 68 be 40 3e 63 3d 54 12 f1 3d 32 4f 65 3e
       -0.22730508 0.055479288 0.11771074 0.22393492
0003b0 2e bc 46 3e 80 13 7d 3c 3c 23 96 3d 82 d7 43 be
       0.19407722 0.015446544 0.07330939 -0.19125178
0003c0 d6 30 6b be e0 56 20 3e e0 c1 cb bc 0a 0a 60 be
       -0.22967848 0.1565814 -0.02487272 -0.2187883
0003d0 e6 fc 47 be 00 56 6b bc 94 2a 9d 3d 68 46 93 3d
       -0.19530067 -0.014363766 0.07674137 0.07191163
0003e0 88 2e 21 3d 24 54 ab 3d 6e 55 07 3e 70 0f dd 3c
       0.039351016 0.08365658 0.13216183 0.0269849
0003f0 80 5e f4 3c 26 89 7b 3e 00 52 6a 3c 74 4e f7 bd
       0.029830217 0.24564037 0.014301777 -0.120755106

linear2.bias f4 [59]
000000 6e 59 4f be 3c 50 9c bd 14 4a 92 bd 32 96 40 be
       -0.20248958 -0.07632491 -0.071430355 -0.18807295
000010 b2 aa 79 be 60 ee b9 3d fe 17 3c be 4c d5 02 be
       -0.24381521 0.090786695 -0.18368527 -0.12776679
000020 1c a8 66 3e 86 36 78 be 1a 5d 77 be 36 fd 24 3e
       0.22525066 -0.24239549 -0.24156609 0.16112217
000030 90 c1 b1 bd 16 02 40 be 22 85 09 3e b0 03 f0 3c
       -0.08679497 -0.18750796 0.13429692 0.029298633
000040 3e f5 03 3e 98 c9 8d 3d 74 9a 5c 3e 80 24 72 be
       0.12886521 0.069232166 0.21543294 -0.23646736
000050 e8 6d fa 3d 2a b4 48 3e 84 55 fa bd 04 fd 47 be
       0.12227994 0.19599977 -0.12223342 -0.19530112
000060 80 91 f4 bd 90 66 8b bd 80 08 50 3c fc c7 e6 bd
       -0.119418144 -0.068066716 0.012697339 -0.11268613
000070 b0 82 6b 3e a0 7e bf 3d 28 17 c3 bd 80 c1 62 bb
       0.22999072 0.09350324 -0.09525901 -0.0034600198
000080 22 70 15 3e 92 b6 1e be 60 33 d2 3c c4 82 e1 bd
       0.14593557 -0.15499333 0.025659263 -0.1101127
000090 6c b8 3e be 72 77 22 3e c0 6e 28 bc 58 01 2a 3d
       -0.18625039 0.15865877 -0.010280311 0.041505188
0000a0 40 c6 ac bc b4 cb a7 bd 88 96 01 3e 82 25 5a 3e
       -0.021090627 -0.0819315 0.1265508 0.2130337
0000b0 8e 48 5a be 5c 55 20 be 94 e1 7d be c8 4d ab 3d
       -0.2131674 -0.15657562 -0.24793082 0.08364445
0000c0 aa 32 3a be b4 3a 8a bd 7e 9b 3b be 3c b5 34 3e
       -0.1818339 -0.06749478 -0.18321034 0.1764726
0000d0 60 71 bb bd 3c fc b5 3d dc 14 8d bd 8a c3 48 be
       -0.09152484 0.088860005 -0.06888744 -0.19605842
0000e0 b8 58 e4 3d 12 40 6e 3e 7a 8e 2b 3e
       0.11149734 0.23266628 0.16753569
